src/online-model/model/mpc_200_model.pt (torch, 390307 bytes, 10 tensors)

weight_ih_l0 f4 [320, 56]
000000 58 54 81 3f 28 3d 4b bf da 27 1a bf 70 ad 11 bf
       1.0103865 -0.7939019 -0.6021706 -0.5690527
000010 43 c9 33 3f 36 17 a0 3d 43 56 83 bd 7c cb 53 3d
       0.70228976 0.07816927 -0.064129375 0.05170773
000020 5d 33 85 3f 50 ff 3a bf 75 a3 3d bf c1 d0 41 bf
       1.04063 -0.73045826 -0.7407754 -0.7570916
000030 db 36 16 bf de e8 35 bf ba a4 39 bf 4a 9b b8 be
       -0.5867745 -0.7105845 -0.7251698 -0.36055976
000040 4d 68 13 bf 85 9e 11 bf 63 f7 f3 3e 06 77 a6 be
       -0.57581025 -0.56882507 0.4764968 -0.32512683
000050 3b a0 c8 3d 0f f3 13 be 2e be dc 3d 1a 82 b9 be
       0.097961865 -0.14448188 0.107784614 -0.36232072
000060 4b a4 45 bf 07 90 69 3f 1e 0a ac 3d 9a 57 d4 3b
       -0.77203816 0.91235393 0.08400367 0.0064801695
000070 1b 41 5a be 43 d1 3a be 09 e6 bf bc 43 cf b1 be
       -0.21313898 -0.1824389 -0.023425119 -0.3472844
000080 21 a6 c4 bd 70 0f 46 bf a8 ec 1a 3f f9 21 80 3f
       -0.09601999 -0.77367306 0.6051736 1.0010368
000090 52 f8 1b 3f 4e 02 87 3f 37 9b 4c be e5 09 1b 3e
       0.6092578 1.0547578 -0.19981085 0.15140493
0000a0 9f 33 c3 be e7 35 e1 bd 29 a5 aa be 0d 3c ee bf
       -0.3812532 -0.10996609 -0.33329132 -1.8612076
0000b0 b6 16 55 3f f9 42 1e 3f 17 62 15 3f a1 7f ee 3e
       0.8323778 0.6182094 0.583528 0.46581748
0000c0 d7 83 30 bf c3 65 20 3f ce 7c 47 bf 19 7c 2b bf
       -0.6895117 0.62655276 -0.7792481 -0.66986233
0000d0 eb 0c 96 be 26 0e 11 3f fa 46 aa 3e 86 74 41 3f
       -0.2930673 0.56662214 0.33257276 0.75568426
0000e0 cf 7e 4c 3e b1 35 a3 bf 84 d1 86 3d 0e 50 54 bf
       0.19970249 -1.275076 0.06582931 -0.82934654
0000f0 6a df 50 3f 0c e1 fa 3e fd 60 07 3f da d1 f3 3e
       0.815909 0.48999822 0.5288237 0.47621042
000100 ed 1d 4e bf bc 58 5a bf e3 7b 54 bf b1 c8 1a 3e
       -0.80514413 -0.8529165 -0.83001536 0.1511562
000110 d3 56 25 bf 11 08 33 bf d9 71 2c bf d0 a5 4a bf
       -0.6458561 -0.69934183 -0.6736122 -0.7915926
000120 2b 65 44 bf 3c b5 45 bf 5a 3b ab be 8b 7b fa be
       -0.7671687 -0.77229667 -0.3344372 -0.4892238
000130 8d 74 0e bf cb 52 f1 be f8 57 f7 be 14 c2 c8 bd
       -0.5564659 -0.4713348 -0.48309302 -0.098026425
000140 d5 37 68 3f 09 5a 97 bf 91 02 28 bf 7f 55 c1 be
       0.9071019 -1.1824352 -0.65628916 -0.3776054
000150 57 4d a7 3e c6 19 a8 be 89 87 cd be 66 a0 b1 3e
       0.32676193 -0.32832164 -0.40142468 0.34692687
000160 b1 ba a0 be ea cf 54 bf f7 50 28 3f 76 b2 bc be
       -0.31392434 -0.8312975 0.6574854 -0.36854905
000170 77 28 d0 bd 0e 00 84 3d 15 96 4f 3e 81 b7 bb 3e
       -0.10163968 0.06445323 0.20272096 0.3666344
000180 50 72 4d 3f 5a 00 ab be df 0f ed 3e 4d e1 f2 bd
       0.8025255 -0.33398706 0.4630117 -0.11859379
000190 04 aa 1c bf 48 9f 09 c0 dd 43 b9 3f 75 58 c7 3f
       -0.61196923 -2.1503468 1.4473835 1.557387
0001a0 25 e4 1a 3e 23 db 51 3f 10 fa 3a bf 43 de ef 3d
       0.15126093 0.81975 -0.73037815 0.11712315
0001b0 38 4b dc 3d 8b ba cd 3e 1f c7 13 be 42 7a 56 3f
       0.10756534 0.40181383 -0.14431427 0.837803
0001c0 86 96 9f 3e 51 5e 79 be 80 36 bd be 2d f3 1d bf
       0.31169528 -0.24352385 -0.36955643 -0.6169918
0001d0 84 d4 d8 3e 5f 27 3d be 22 30 df bc f3 d1 0c bd
       0.42349637 -0.1847205 -0.027244631 -0.03437991
0001e0 db 36 14 3e cd ec 0c bf dc 87 11 bf 89 f4 7e be
       0.1447405 -0.5504883 -0.5684793 -0.2489797
0001f0 30 8a 16 bf 45 51 1b bf 5c de f0 be f7 a9 6d 3f
       -0.5880461 -0.6067088 -0.47044647 0.9283747
000200 2a 52 15 bf 30 c1 19 bf 7e 85 cb 3e 0d db f9 3d
       -0.583285 -0.60060406 0.39750284 0.12199984
000210 f9 07 a3 3f ea a5 b4 3f bd 79 9f 3f 24 67 8f 3f
       1.2736808 1.4113133 1.2459027 1.1203351
000220 d2 db ab be 54 cc 16 3f 20 73 c7 3c f8 15 e1 3d
       -0.33566147 0.5890553 0.024346888 0.10990518
000230 4c 73 07 be 90 7c ff 3d 7f 77 0c 3e 5c 54 87 be
       -0.13227576 0.1247493 0.13717459 -0.2643155
000240 61 a7 49 3e fe aa 0e bf a7 6a ff 3e c9 92 1d 3f
       0.19692756 -0.55729663 0.49886057 0.615521
000250 2f c5 ab be 1f e8 40 3e 24 90 b3 3f 4f 26 b0 be
       -0.33548877 0.18838547 1.4028363 -0.34404227
000260 9d 9a 46 bf 76 ab 20 3e e5 62 10 be 86 f7 88 3c
       -0.7757967 0.15690407 -0.14100225 0.01671959
000270 17 52 87 3f 3f 92 3e 3f 1e 9a 86 be 5d 3e 6f be
       1.0571927 0.74441904 -0.26289457 -0.23363633
000280 e5 68 ae be 4d b2 1c 3f 3a 8d da be 03 56 54 be
       -0.34064403 0.61209565 -0.42685872 -0.20735936
000290 07 b0 82 be 8f cc a9 bd 90 3a 7e bf ee b5 1d 3f
       -0.25524923 -0.082909696 -0.9930811 0.6160573
0002a0 91 0c 7f 3f f3 59 01 be 43 74 8e 3e 7c cf 9b 3d
       0.9962855 -0.12631969 0.27823076 0.07607934
0002b0 04 10 d7 3d 76 c3 c2 3e e4 e1 7f 3e 36 ff d1 3e
       0.105011016 0.3803975 0.24988514 0.41015023
0002c0 44 59 58 bf 14 8a f3 bc 71 41 22 bd 14 a8 62 3e
       -0.8451121 -0.029728927 -0.03961319 0.22134429
0002d0 3f d2 a0 bd f3 21 6e bd 54 34 ad bd 8e fa 92 bf
       -0.07852601 -0.058137845 -0.084572464 -1.1482713
0002e0 dd 2d 8c bd b2 f1 a0 3d aa 2c 8e be ea 43 97 be
       -0.06844685 0.078586 -0.2776845 -0.29544002
0002f0 49 98 52 3f d6 6f c0 3e e7 2f 80 3f eb 12 ba 3e
       0.8226362 0.37585324 1.0014619 0.36342558
000300 d8 69 70 3e 61 92 ba 3d 71 6c 38 bf e9 6f 80 be
       0.23477876 0.09109951 -0.7204047 -0.2508538
000310 c1 84 02 3f b5 a8 e8 be 31 02 d8 be ef ff bc 3e
       0.50983816 -0.45441213 -0.42189172 0.36914012
000320 d4 ab d8 be 54 ea f1 bc 5b 58 c8 bc b2 18 a9 3d
       -0.42318594 -0.029530682 -0.024456194 0.082566634
000330 a0 0d 4d 3f c8 08 a8 bf d1 a3 ce 3f 34 1b 2d 3f
       0.80098915 -1.312768 1.6143743 0.67619634
000340 72 ac 7b 3f d6 d1 92 be 5c 7a e2 3e 50 14 73 be
       0.98310006 -0.28675717 0.44233978 -0.23738217
000350 d6 c6 d5 be f2 6b b0 bf 18 f2 ac 3d 33 16 72 bd
       -0.41753262 -1.3782942 0.08444613 -0.059103202
000360 72 2f b6 3e 93 b5 97 3d 35 26 cd bc ca b0 ab 3e
       0.35583073 0.074076794 -0.025042633 0.33533317
000370 06 2f 41 3e 73 40 42 3f 12 36 e5 be f0 46 ff 3d
       0.18865594 0.7587959 -0.44767815 0.12464702
000380 f0 a6 30 3f 94 0c 2d be 52 46 1c bf c8 3a 61 bf
       0.69004726 -0.1689933 -0.610448 -0.8798032
000390 fd 7b 67 3f d5 f3 c3 3c 93 9a a4 bd 7c 0d 0e bc
       0.90423566 0.02391998 -0.08037295 -0.008670207
0003a0 b5 e1 56 3e 80 0d 5c bf d4 7e 3d bf 87 80 28 bf
       0.20984538 -0.859581 -0.7402165 -0.6582112
0003b0 06 7e 55 bf 0c 18 4c bf 5e ff 4a bf 83 ac 58 3d
       -0.8339542 -0.7972419 -0.7929591 0.052898895
0003c0 9a 91 5b bf d9 c0 50 bf b0 27 24 3f a8 3b 09 3e
       -0.85769045 -0.8154426 0.6412306 0.13401663
0003d0 46 2b 1b 3f 2c bd 79 3e 20 69 fa 3e 9e 03 91 3e
       0.60612905 0.2438857 0.4890833 0.28323072
0003e0 1a c0 c0 3e 35 54 85 be 42 d6 af 3f f9 6b e8 be
       0.37646562 -0.26040807 1.3737261 -0.45394877
0003f0 1a 9b 20 3d bc 5e c7 be 10 dd c6 be 22 43 05 3e
       0.039210416 -0.38939464 -0.38840532 0.1301389

weight_hh_l0 f4 [320, 80]
000000 ac e5 08 be 23 2f 41 3f 63 39 bb bd 7d 3a c4 3e
       -0.13368863 0.7546255 -0.09141805 0.38325873
000010 a0 51 4e be b0 83 73 3f 76 48 a4 bf be f3 95 3f
       -0.20148325 0.95122814 -1.2834613 1.1715009
000020 63 8c 24 bf 27 0d 8c bf 5f d8 18 bf 36 17 60 3e
       -0.64276713 -1.0941514 -0.59705156 0.21883854
000030 27 d3 7f 3f f2 30 72 3d 25 f4 c4 3d d0 c0 0b bf
       0.9993157 0.05912871 0.096168794 -0.54591084
000040 d2 53 61 be ae f9 8d bf b1 0b 0c 3f 01 a7 18 bf
       -0.22004631 -1.1091821 0.5470534 -0.5962983
000050 cb 7e 78 be 5e 45 fe be a9 e5 9a bf a2 81 c9 be
       -0.24267118 -0.49662298 -1.2101337 -0.39356714
000060 c0 a3 95 3f ff b1 62 3e fe 47 ef be 16 d3 be 3e
       1.1690598 0.22138213 -0.46734613 0.3727042
000070 0b 1d f0 3d b9 22 22 bf c9 61 8f 3f 9d d9 ad 3e
       0.117242895 -0.6333423 1.1201717 0.33955088
000080 ce 9d ac bf ea a0 65 bf 23 da 70 3e aa f8 0f bf
       -1.3485658 -0.8969866 0.23520713 -0.56238806
000090 24 b4 77 bf dd 14 8e bf a3 15 40 bf 8f 02 c5 be
       -0.9675925 -1.1100117 -0.75033015 -0.38478515
0000a0 59 57 a4 be d2 21 a9 be a9 f5 64 bf 32 96 9d bf
       -0.3209789 -0.33033615 -0.8943735 -1.2311461
0000b0 38 21 82 3e 5a 4c de 3f 8c 24 83 bc 16 af 8a 3f
       0.2541597 1.7367051 -0.016008638 1.0834682
0000c0 97 2b 02 3f 5d 71 63 3f 0a 8b 04 c0 a5 de 04 bf
       0.5084776 0.88844854 -2.0709863 -0.5190223
0000d0 61 f1 5b 3e 29 88 ca bf 3c 60 71 3f 16 1a 57 bf
       0.21478797 -1.5822803 0.94287467 -0.8402418
0000e0 a7 7e 6c 3f 0d 08 9b bf 13 20 6f be c4 66 8b 3e
       0.92380756 -1.2111832 -0.23352079 0.2722684
0000f0 55 2a 00 3f 9b a8 5f bf e9 2d 77 3f 5b 41 02 bf
       0.50064594 -0.87366647 0.9655443 -0.50880975
000100 72 29 1f bf 8f 7f 67 bf d9 2d 91 3f db bf d9 3f
       -0.62172616 -0.90429014 1.1342117 1.7011675
000110 b4 01 cb 3e 5f c6 fb bd d7 35 24 3f 4b d0 04 3f
       0.39649737 -0.12293696 0.64144653 0.5188033
000120 df ad cd 3f 74 6e 4d 3e 4e 70 71 bf f0 11 8b bd
       1.6068686 0.20061666 -0.9431199 -0.06790531
000130 e8 66 06 3e e7 3b 81 3f 02 81 af 3e f1 c3 9f bf
       0.13125193 1.0096406 0.34278113 -1.2481672
000140 7b 16 04 bf 54 cf cb 3e 98 0e 75 be 2c 5b 07 3f
       -0.515968 0.39806616 -0.23931348 0.5287349
000150 b8 c9 a3 3d 65 bb 12 be c7 07 8c 3e 97 b2 79 3e
       0.07997459 -0.14329298 0.27349684 0.24384533
000160 1f 66 ad 3f d8 16 d5 3e 84 75 c9 3e 72 4f c6 3d
       1.354679 0.4161899 0.3934747 0.09683122
000170 08 b3 9a bf bc 91 53 bd 79 07 49 3f fd d0 9b 3e
       -1.2085886 -0.051652655 0.7852703 0.30432883
000180 9c 25 b8 bd 54 57 18 3e ac 2b 05 bf 27 2b 31 3f
       -0.089915484 0.14877063 -0.52019763 0.6920647
000190 4d e1 83 3c 50 6d 1e 40 65 74 17 bd 6e 66 48 bf
       0.016098643 2.475422 -0.036976237 -0.78281295
0001a0 9f b4 01 be e7 ee 7c bf 0a 06 f3 3e e6 36 11 3e
       -0.12666558 -0.98802036 0.47465545 0.14181098
0001b0 62 94 ed 3e 9d c3 e4 3e 68 ae 9b 3e ad d4 a6 bd
       0.4640227 0.4468049 0.304065 -0.081460334
0001c0 a8 3b 5f 3e f5 3e d6 be a3 4a 09 3f 84 51 4a 3f
       0.21800101 -0.41844907 0.5362951 0.7903063
0001d0 83 ee e2 38 72 a8 b1 bf ad cc fe be e7 b0 7f bf
       0.00010820946 -1.387953 -0.4976553 -0.99879307
0001e0 b4 87 9d bd 3d 78 27 3d 4e 7d 26 bf 39 3a 18 3f
       -0.07691899 0.040886153 -0.6503495 0.5946384
0001f0 10 26 26 3e e3 4c ac 3d 51 26 03 3e aa 92 3b bf
       0.16225457 0.084131025 0.12807585 -0.73270667
000200 84 83 3f bf 68 a1 9c 3f 17 11 22 bf 33 bd e4 be
       -0.7481005 1.2236757 -0.6330733 -0.44675598
000210 e8 a9 28 3f e9 a1 9d 3f 62 d0 f3 3d 76 7b f3 3e
       0.65884256 1.2315036 0.1190498 0.4755513
000220 bf d3 0e be 1c 1f cd 3e 65 2e 42 bf 31 13 5a be
       -0.13947962 0.40062797 -0.7585204 -0.21296383
000230 f2 f6 aa 3e 4a fd 12 c0 f0 c5 cf bf 1c f3 a0 be
       0.3339153 -2.2967095 -1.6232281 -0.31435478
000240 87 a3 1e be c7 b0 e8 3e e6 40 36 3e e2 ea 24 bf
       -0.15492068 0.4544737 0.17798194 -0.644209
000250 d1 9f 01 bb 84 bf b1 3e f5 50 0a 3f 0c 07 2b bf
       -0.0019779096 0.34716427 0.5402978 -0.6680763
000260 b5 fc d0 3e d8 62 25 bf 46 a3 86 be 2a e0 76 3e
       0.408178 -0.6460395 -0.26296443 0.2410895
000270 cb b1 92 3e 31 b6 d4 bf df fd 5f be ec b3 b4 3e
       0.2865127 -1.66181 -0.21874188 0.3529352
000280 89 b1 c9 be 80 aa e8 be 66 ef 25 3e c1 63 42 bf
       -0.3939326 -0.4544258 0.16204605 -0.7593346
000290 1d ba 14 be e9 44 53 3e e5 47 28 be fa c9 f5 3e
       -0.14524122 0.20631756 -0.16433676 0.48005658
0002a0 65 8b 27 3f 6b 6f ef 3f a4 56 97 3f fe 82 2c 3f
       0.65447074 1.8705877 1.1823316 0.6738738
0002b0 ef f3 b1 bf ee 75 a9 be 85 7b 2f 3e 78 17 a1 be
       -1.3902568 -0.33097786 0.17136963 -0.31463218
0002c0 a3 31 81 bf 3f 04 b6 bf 14 b6 2a 3e 3d 30 ba 3e
       -1.0093273 -1.4220046 0.1667102 0.36364928
0002d0 61 37 d8 3d 17 81 a1 3f 31 ea 1e 3f 18 5e 42 be
       0.10557438 1.261752 0.620761 -0.18981206
0002e0 e6 48 c1 bd 31 d9 56 bf 51 e0 45 3f 11 17 7f 3e
       -0.094377324 -0.8392516 0.77295405 0.24911143
0002f0 97 f2 24 3e 36 97 ac bd c8 e8 0b 3e 21 c4 89 3e
       0.16108166 -0.08427279 0.13663018 0.26907447
000300 16 8f bf be 7a 91 57 3e a5 d8 d6 3e cc f4 77 3d
       -0.37413853 0.21051589 0.41962162 0.06053619
000310 bc 11 fc be d8 31 34 bf 86 eb 0d 3f e8 78 20 bc
       -0.4923228 -0.70388556 0.55437505 -0.009794451
000320 ad c2 30 3f 97 90 4c 3e 52 49 20 3e 60 11 ea 3e
       0.6904705 0.19977032 0.1565297 0.4571638
000330 c9 dd c2 3e f6 69 c2 3d 05 e9 b7 3f 12 0e 34 bf
       0.38059834 0.09492867 1.4367987 -0.7033397
000340 de 5a e2 3d 96 1a 7f bf 77 5d e4 bd 6d 6a 86 be
       0.11052488 -0.9964994 -0.111506395 -0.2625307
000350 00 e6 5e bf cd 2a 0b 3e 31 2e 08 be d3 15 a8 3e
       -0.870697 0.13590546 -0.1329887 0.3282915
000360 dd 68 8a 3e ef a9 62 bf 76 49 e9 be 7b 26 66 bf
       0.2703313 -0.8854055 -0.4556386 -0.89902467
000370 37 b7 91 3f 1d 70 d6 be 1c 06 2e bf 7f 66 9d 3c
       1.1384038 -0.4188241 -0.6797807 0.019213913
000380 66 3e 43 3f e8 3b 50 3e f2 66 2b 3f 1f f7 24 bf
       0.7626709 0.20335352 0.6695396 -0.64439577
000390 ee c5 51 3f 9e 62 38 3e 68 53 df 3e 6d 16 81 be
       0.8194264 0.1800637 0.4361832 -0.25212422
0003a0 75 b9 40 be c4 6c 36 bf 19 7e 59 be 30 66 6a 3f
       -0.18820746 -0.71259713 -0.21239509 0.91562176
0003b0 80 8d 77 3e fe 74 a0 be 9c 19 98 bf 55 dc 14 bf
       0.24175072 -0.31339258 -1.1882815 -0.581487
0003c0 93 5c 85 bf 0a 69 1d 3d f9 a2 df be fe 99 19 bd
       -1.0418876 0.03843025 -0.43679026 -0.037500374
0003d0 2d 59 0f be 2d f9 b9 3d cf 63 2c bf 83 46 6d bf
       -0.13998862 0.0908073 -0.67339796 -0.9268572
0003e0 e6 26 30 3f b7 35 e5 be 7c c1 35 3f 79 bd c9 3d
       0.68809354 -0.44767544 0.7099836 0.09850592
0003f0 8c ba 9c bf 29 e4 c7 be f2 a1 03 bf 5c 5d 4f be
       -1.224443 -0.3904126 -0.51418984 -0.20250458

bias_ih_l0 f4 [320]
000000 d9 87 23 bf 8d 2b 28 bf 77 e9 f1 be b6 dd a2 3d
       -0.6387916 -0.65691453 -0.47248432 0.07952444
000010 d8 67 4d bf ac 76 10 bf 4a 15 11 bf f7 e5 dd be
       -0.8023658 -0.5643108 -0.5667311 -0.43339512
000020 03 52 1b bd 27 ba 04 bf 3b 1c 4f bf 3f ce 87 be
       -0.03792001 -0.51846546 -0.8090245 -0.2652454
000030 c9 bd b4 3d 48 37 0d 3f 63 17 0b bd 0c ed 3c bf
       0.08825261 0.5516248 -0.03395785 -0.73799205
000040 03 09 42 3e 62 0f 0f 3e 25 63 87 be 20 51 25 bf
       0.1894875 0.13970712 -0.2644283 -0.6457691
000050 44 c8 2b 3f 4a 6f f5 be 6c b8 23 be e3 d1 ff be
       0.67102456 -0.4793647 -0.1598832 -0.49964818
000060 2e 5f c3 be 6e 1d c8 be cf bf 63 bf d3 96 de be
       -0.38158554 -0.39084953 -0.8896455 -0.43474445
000070 68 c3 82 be 02 62 ce be d5 c8 f1 3c 56 66 15 bf
       -0.25539708 -0.4030915 0.02951471 -0.5835928
000080 0f af 76 3d 90 0f 76 bd 22 14 bd be 06 ba 8a be
       0.060225543 -0.060073435 -0.36929423 -0.2709505
000090 28 a3 71 bf 56 27 84 3e ea 54 0f be 51 fe 6c bf
       -0.9438958 0.2581126 -0.13997236 -0.92575556
0000a0 b1 c8 2e be d6 7b 48 bf 77 2a a3 be 2c da fd be
       -0.17068745 -0.7831396 -0.31868336 -0.49580514
0000b0 ee ed a6 be b6 07 77 bf 91 97 5a be 42 77 32 bc
       -0.326034 -0.9649614 -0.2134688 -0.010892691
0000c0 77 af b6 be 1a 06 22 bf 5c 3f 1d bf 59 cd 86 bf
       -0.35680744 -0.6329056 -0.61424804 -1.0531417
0000d0 1f 39 d2 be 24 fb 9b 3d 9e 86 e9 be 50 de 09 bf
       -0.41059205 0.07616261 -0.45610517 -0.53854847
0000e0 ed 31 ff bd 07 92 8a 3f 42 fb 96 bd e9 e4 d1 bd
       -0.124606945 1.0825814 -0.073721424 -0.10248739
0000f0 8f fd 0c bf 4e 51 04 be 48 b5 09 be 91 68 d8 be
       -0.550744 -0.1292164 -0.1344806 -0.42267278
000100 27 98 40 bf c4 37 e2 be 13 74 18 bf bb 21 d7 3e
       -0.75232166 -0.4418317 -0.59552115 0.42017922
000110 e9 ea b2 be fe 14 c9 bd 11 b3 23 bf 7b 7d ab bf
       -0.34944847 -0.09818457 -0.6394511 -1.3397669
000120 b0 73 06 bf 42 79 43 bd 8c 4c 55 be fa 8e 96 be
       -0.52520275 -0.047723062 -0.20829982 -0.29405957
000130 3a a6 84 be a1 7c 25 bd 1c 34 9a be e8 8b d9 be
       -0.2590807 -0.04040206 -0.3011788 -0.42489552
000140 ce 2e 1a bf 7c e5 06 bf 09 62 6b bf 25 c2 3a bf
       -0.6022767 -0.52693915 -0.91946465 -0.7295249
000150 2e ff dd be d1 50 56 be a7 41 93 be 80 14 60 be
       -0.4335875 -0.20929267 -0.28761026 -0.2188282
000160 58 53 1a bf cd e2 d2 3e 39 59 a4 bf 8f 74 f3 be
       -0.6028342 0.4118866 -1.2839729 -0.47549865
000170 27 b2 db be 87 da d0 be 23 97 49 3e 17 68 1a bf
       -0.42909357 -0.40791723 0.1968656 -0.6031508
000180 ae 1e 8c be c5 57 3c bf 61 8c 42 bf 9c d8 99 bf
       -0.27367157 -0.73571426 -0.7599545 -1.2019229
000190 17 0a 59 bf ba 58 20 be 26 ac 84 3e 29 50 1c bf
       -0.8478102 -0.15658846 0.2591259 -0.61059815
0001a0 53 d8 99 bf c1 40 55 bf a4 47 b8 bd bb 2a be bd
       -1.2019142 -0.8330193 -0.08998039 -0.09285494
0001b0 36 5d 72 bd f3 2c 43 3d 11 bd 7c bf 3e a5 43 bf
       -0.059170924 0.04765029 -0.9872599 -0.76424015
0001c0 ed 43 53 be 90 43 87 bf fa 95 6a bf 92 89 1e bf
       -0.2063138 -1.0567493 -0.91635096 -0.61928666
0001d0 c5 cf 6a bf 23 a6 a6 bd 80 93 9d 3e 06 34 39 bf
       -0.9172328 -0.08137157 0.30776596 -0.72345006
0001e0 a6 f9 f1 bd d4 21 0f bf 64 82 3f bd 49 e6 8c bf
       -0.11815195 -0.5591099 -0.04675521 -1.1007777
0001f0 94 80 9d bd e5 10 96 bf 49 8c 74 bf 01 76 95 be
       -0.0769054 -1.1723906 -0.9552656 -0.29191592
000200 5d 90 27 bf 18 19 56 bf a6 4d 96 bf a3 32 8b bf
       -0.65454656 -0.8363204 -1.1742446 -1.0874828
000210 71 ae 70 bf 4e 7a 48 bf 84 24 ef be 5c 86 21 bf
       -0.94016176 -0.7831162 -0.46707547 -0.6309564
000220 3e aa 58 bf b7 69 a3 bf 9f fb c8 3e 61 77 12 bf
       -0.8463477 -1.2766637 0.39254472 -0.5721341
000230 d9 58 db 3d 09 3e 57 bf c2 bc 46 bf 4b 0e b8 be
       0.10710306 -0.84079033 -0.7763177 -0.35948405
000240 5b b0 84 bf 37 b4 fa be a8 27 55 bf 01 18 3d bf
       -1.036632 -0.48965618 -0.83263636 -0.7386475
000250 0c ea 3b bf a5 8e ef ba c8 18 1f bf 93 4f 81 bf
       -0.73404 -0.0018276764 -0.6214719 -1.0102409
000260 51 48 d5 3b c3 bf 32 bc 09 8b 47 bf 87 fc f0 be
       0.006508865 -0.010909977 -0.77946526 -0.47067663
000270 74 d9 5b bf e9 74 57 bf 9f 3a e7 bd 41 31 4d bf
       -0.8587868 -0.84162766 -0.11290478 -0.8015328
000280 66 14 57 be 2b dc fb bc 79 26 ab 3e 66 0b de 3e
       -0.21003875 -0.030744633 0.3342779 0.4336807
000290 32 cb 4f 3c a4 0f 3c be 03 4d ae bd 0a 05 6e be
       0.012682723 -0.18365341 -0.085107826 -0.2324411
0002a0 14 7f 52 be 60 5f 9e be b2 52 43 3e 5d 8d 87 bd
       -0.20556289 -0.3093214 0.19074515 -0.0661876
0002b0 1e 91 44 be 99 69 51 be 40 53 3a 3e be 80 1e 3e
       -0.19195983 -0.20450439 0.1819582 0.15478799
0002c0 f0 27 d4 3e 8a d3 2a be 36 b2 d1 be 1f 2a 0e be
       0.4143672 -0.16682258 -0.40956277 -0.13883255
0002d0 da 26 e3 3c 11 20 b0 3c 85 23 08 3d 1f 90 15 bd
       0.027728487 0.021499665 0.033237 -0.036514398
0002e0 1b d2 76 be 29 31 00 3c d8 2d 09 3e fc 7b e7 3e
       -0.24103586 0.007824221 0.13396394 0.4521178
0002f0 5c 56 b1 3d 3d cf e4 3d d9 e2 8d 3d 6b e5 2a be
       0.0865905 0.1117234 0.069280334 -0.16689079
000300 4b 5c 7c 3d 9d 50 40 3d ab 90 6d be 5b 76 87 be
       0.061611455 0.04695188 -0.23199718 -0.26457486
000310 36 ef c0 3d 4b 16 26 3f 0e 88 21 bd 2a 9c 55 bd
       0.09420626 0.64877766 -0.039436392 -0.052150883
000320 71 a9 81 bc 07 e6 4d be 75 04 2c be f0 7b cd 3e
       -0.015827866 -0.2010728 -0.16798575 0.4013362
000330 71 c3 c5 be 55 52 46 be 5d 69 89 be e6 37 54 bd
       -0.38625672 -0.19367345 -0.26838198 -0.05181112
000340 1d 22 6b be 16 52 28 be f0 b5 09 be cd ea 7e 3e
       -0.22962232 -0.16437563 -0.1344831 0.24894257
000350 dd d4 1b bd 0f 91 ed 3e 59 b3 99 be 62 b4 e7 3d
       -0.0380448 0.46399733 -0.30019644 0.11313702
000360 d8 5c 9d 3e 2f 2c 60 be 27 5a bb be 4e 02 a5 bd
       0.30734897 -0.21891855 -0.36592218 -0.0805708
000370 e9 04 f8 bd 59 5e a1 3e 36 95 22 be 27 cd 38 3e
       -0.121103115 0.31517294 -0.15877232 0.1804701
000380 0d 30 bf bd b6 c9 5c 3e 16 f5 aa be 1e 3f e6 3d
       -0.09335337 0.21561322 -0.3339011 0.112425074
000390 fe 82 64 be 75 27 cc be e8 19 33 3f 5d 5d 01 be
       -0.22315595 -0.39873853 0.69961405 -0.12633272
0003a0 57 3e 84 3d 91 2d b6 3d f8 43 2a bf 8a 6c 1e 3f
       0.06457203 0.0889541 -0.6650996 0.6188437
0003b0 c4 5c c3 3c 92 d8 c1 bd fc 3e 27 be 04 83 49 3e
       0.023847945 -0.09465136 -0.1633262 0.19678885
0003c0 5e af 75 be 12 f6 7d bf d1 f7 86 bf dc a3 2d bf
       -0.23992679 -0.992036 -1.0544378 -0.67828155
0003d0 1f 7f 49 bf 02 38 42 bf fc fa b9 be 7b c9 4b be
       -0.78709596 -0.7586671 -0.36324298 -0.19901077
0003e0 25 f1 82 be 95 5a 10 bf d3 d6 64 bf 82 bd a1 be
       -0.25574604 -0.5638822 -0.89390296 -0.31589895
0003f0 d1 d8 c5 be 12 44 71 bf 8f 12 c2 be ef c3 19 bf
       -0.3864198 -0.9424449 -0.37904784 -0.60064596

bias_hh_l0 f4 [320]
000000 77 c5 15 bf cc af 55 bf 88 24 00 bf 32 79 89 bc
       -0.5850443 -0.8347137 -0.5005574 -0.016781423
000010 c8 5a 61 bf c8 21 e8 be da 7e c7 be b3 74 fd be
       -0.88029146 -0.45338273 -0.38963968 -0.49503097
000020 8b 5d e5 bd 4a ff 18 bf dd 7a 69 bf b8 17 64 be
       -0.111994825 -0.5976454 -0.912031 -0.22274673
000030 30 2c a0 bd 6c 84 fc 3e 28 cc b3 3d 0b f9 56 bf
       -0.07820928 0.4931978 0.08779174 -0.8397376
000040 c6 7a 7e 3e 31 4d e5 3d cf 8b b2 be 84 0c f4 be
       0.24851522 0.11196364 -0.3487229 -0.476658
000050 cd 61 25 3f ac a1 11 bf df 50 27 be 90 04 b8 be
       0.6460236 -0.56887317 -0.16339444 -0.3594098
000060 65 b9 a3 be ff 0d f4 be 7d 69 35 bf 3e 29 b6 be
       -0.31977382 -0.47666928 -0.7086409 -0.3557834
000070 1e d3 5f be d9 b6 e0 be 05 fc 20 3d 3a 8e cd be
       -0.21857879 -0.43889502 0.039302845 -0.40147573
000080 12 6a 8b 3d bc 61 03 be aa be 40 be 57 11 75 be
       0.06807341 -0.12830251 -0.18822733 -0.23932396
000090 0e 58 6b bf 26 bf aa 3e f3 dc 86 be e1 4f 68 bf
       -0.91931236 0.3334896 -0.26340446 -0.90746886
0000a0 5f f8 34 be d1 33 39 bf 20 a8 8e be 32 a8 e8 be
       -0.17672871 -0.7234469 -0.27862644 -0.45440823
0000b0 09 63 9a be 86 c0 81 bf 9a 03 83 be bb 6b 0b 3e
       -0.30153683 -1.0136878 -0.25588685 0.13615315
0000c0 56 1b 3e be 03 ab 17 bf c3 75 2f bf 98 16 67 bf
       -0.18565115 -0.5924532 -0.68539065 -0.9026885
0000d0 3d 6b b3 be 4c db aa 3d 68 4d b8 be 00 75 1d bf
       -0.35042754 0.08342609 -0.35996556 -0.6150665
0000e0 de 15 db bd 03 5d 86 3f 80 e9 a0 3d 2e 2a d2 bd
       -0.1069753 1.0497135 0.078570366 -0.102619514
0000f0 64 a7 17 bf 5b d4 0d be 88 70 a8 be 7d 91 ce be
       -0.5923979 -0.13850538 -0.32898355 -0.40345374
000100 e9 3a 51 bf e0 8d 82 be 38 b4 32 bf e6 5b cd 3e
       -0.81730515 -0.25498867 -0.6980624 0.40109175
000110 7a 44 b9 be e8 17 8c be 66 67 fc be 1c c0 9a bf
       -0.36185056 -0.2736199 -0.49297637 -1.2089877
000120 3d 1f ee be 4b a0 93 bd 9e df b6 be b7 41 f6 bd
       -0.46508208 -0.07208308 -0.3571748 -0.12024253
000130 ff 9d 6b be 68 84 24 3d 16 ff 00 be 2a a1 15 bf
       -0.2300949 0.040165335 -0.12597308 -0.5844904
000140 6b 8f 2e bf 5d b9 e4 be 0a 23 6a bf c9 44 26 bf
       -0.6818759 -0.4467267 -0.91459715 -0.6494871
000150 83 e4 0a bf 7c 10 6a be 0e 72 7c be 6d 10 44 bd
       -0.5425493 -0.22857851 -0.24652883 -0.047867227
000160 18 32 f3 be 55 c9 90 3e 14 80 9f bf bf 76 05 bf
       -0.47499156 0.28278604 -1.2460961 -0.5213432
000170 b7 ee de be 89 63 18 bf be a0 58 3d e0 bc 1c bf
       -0.435415 -0.5952688 0.05288767 -0.612257
000180 09 6d ad be 48 95 21 bf 6e c7 54 bf 57 25 9a bf
       -0.3387225 -0.6311841 -0.83116806 -1.2042645
000190 51 99 3d bf 8b 41 7d be 4a 4f 72 3e fe dd 2a bf
       -0.7406207 -0.24732034 0.23663059 -0.66744983
0001a0 51 7f 92 bf 93 e2 69 bf 53 e4 a4 bd 56 5a 42 be
       -1.1445104 -0.9136135 -0.08051362 -0.18979773
0001b0 b8 f0 97 bd 88 11 41 3b 36 65 8d bf ab 8c 26 bf
       -0.0741896 0.0029459912 -1.1046512 -0.6505839
0001c0 18 44 dd bd ed 6a 73 bf 87 0d 69 bf 7e d8 06 bf
       -0.108040035 -0.9508503 -0.91036266 -0.5267409
0001d0 b0 22 50 bf cc e2 28 be 28 92 c6 3e 17 ee 20 bf
       -0.8130293 -0.16492766 0.38783383 -0.62863296
0001e0 57 62 93 be 52 38 27 bf c4 2f 18 be b4 e5 89 bf
       -0.28785965 -0.6532031 -0.14861971 -1.0773225
0001f0 e4 9d d0 bd 7b 99 93 bf d0 4a 5d bf 80 11 ba be
       -0.10186365 -1.1531214 -0.8644228 -0.36341476
000200 c3 84 32 bf e1 7b 6d bf 4e 93 99 bf ad 6c 81 bf
       -0.6973383 -0.9276715 -1.1998079 -1.011129
000210 6d 23 82 bf 6e e0 2e bf 53 db c2 be 54 dc 15 bf
       -1.0167061 -0.683112 -0.38057956 -0.5853932
000220 1c fb 63 bf 5d 9f ac bf 01 69 8a 3e ee 8c 24 bf
       -0.8905504 -1.3486134 0.27033237 -0.6427754
000230 68 22 ba 3d e0 f7 4b bf 4e 95 3c bf 7b 68 71 be
       0.09088594 -0.796751 -0.7366532 -0.23575012
000240 54 92 90 bf 08 e9 dd be 9c d5 5c bf 65 9e 4e bf
       -1.1294656 -0.4334185 -0.8626344 -0.8071044
000250 7b 7d 66 bf 75 68 98 3d 4b 82 2e bf ed 9d 51 bf
       -0.9003522 0.074417986 -0.6816756 -0.818816
000260 28 84 a0 3d 83 bc c5 bc c9 74 2a bf 95 a6 bf be
       0.07837707 -0.024137741 -0.6658445 -0.3743178
000270 bc 10 6f bf 53 bb 2f bf e7 a6 02 be 74 99 33 bf
       -0.9338491 -0.6864521 -0.1275898 -0.70156026
000280 53 21 9b be 56 a7 09 3c 35 07 c2 3e 91 02 89 3e
       -0.30298862 0.008401712 0.37896124 0.2675977
000290 e9 66 c4 bd ff 05 a3 3b 18 37 82 bc bb c9 a8 be
       -0.09589941 0.00497508 -0.015895411 -0.32966408
0002a0 c8 29 8f be 7a cc e1 be 97 d4 8c 3d 99 1b af bc
       -0.27961564 -0.44101316 0.06876486 -0.021375464
0002b0 0b d6 85 be f2 a5 5e bd bd 0a 74 3e 7e 02 45 3e
       -0.26139864 -0.054357477 0.23832221 0.19239232
0002c0 61 5a f4 3e 4d c8 9a bd 2f 4f 0b bf ec 55 5f be
       0.47725204 -0.075577356 -0.544177 -0.2181012
0002d0 0e 7c 3e bd 89 ec 94 bd 3f 79 07 be 08 d0 f5 bd
       -0.046505027 -0.07271678 -0.13229845 -0.120025694
0002e0 f5 00 bf be 8b 67 ea 3d 43 4f 44 bd 17 3f b1 3e
       -0.37305418 0.114455305 -0.047927152 0.34618446
0002f0 2c be be 3d 16 d2 2e 3d 83 e9 60 3e 1f 59 91 be
       0.09313616 0.042680822 0.21964078 -0.28388306
000300 ae 7f 2b 3e b8 56 70 bd f3 bf a2 be f9 fe f8 bd
       0.16747925 -0.05867645 -0.3178707 -0.12158007
000310 71 dd 4d bd b6 a8 06 3f 83 91 53 be d6 b7 50 bb
       -0.05026001 0.5260118 -0.20660977 -0.0031847856
000320 b6 5a 13 3d fb 57 aa bd 1a ac 24 bd 6b a9 bb 3e
       0.03597518 -0.08317562 -0.04020319 0.36652693
000330 de 16 9c be 99 78 05 be 83 87 90 be f8 e3 41 3c
       -0.30486196 -0.13034286 -0.28228387 0.011834137
000340 87 62 75 be ee 8f 3a bd 12 a2 54 bd 80 d3 d0 3d
       -0.23963366 -0.04554742 -0.051912375 0.101965904
000350 df 0c 33 bd 89 12 dc 3e 64 2f 62 be 05 24 73 3e
       -0.043713447 0.4298289 -0.2208839 0.23744209
000360 f8 95 03 3f b4 6b 86 be 4f b9 b3 be f0 e2 af bd
       0.5140071 -0.26254046 -0.35102317 -0.08588207
000370 17 af c4 3c 47 77 9b 3e c3 0a 49 be 4d f0 0e 3e
       0.02400927 0.3036444 -0.19633012 0.13958855
000380 04 bf e3 bc 35 e6 0e 3c 72 f5 8e be 39 ba a3 3b
       -0.027801044 0.008721878 -0.27921635 0.0049965647
000390 2a 00 28 bd a4 e0 8a be fd 17 1a 3f b1 cc 87 3d
       -0.04101578 -0.27124512 0.60192853 0.06630839
0003a0 87 ea fa 3d 52 3f 03 3e 3d fe 01 bf 75 43 26 3f
       0.12251764 0.12817124 -0.5077856 0.6494668
0003b0 53 c6 9f 3d 00 9f b9 bb 06 f1 29 be 97 04 a4 3e
       0.07801499 -0.005664706 -0.1659585 0.32034752
0003c0 32 6c 91 be a3 04 87 bf 0b 79 83 bf 07 69 35 bf
       -0.2840286 -1.054829 -1.0271314 -0.70863384
0003d0 99 f0 3f bf b0 b4 5a bf f5 c6 bb be da 83 11 be
       -0.749765 -0.8543196 -0.3667523 -0.14210454
0003e0 a4 6c 83 be 6d 29 18 bf 37 cd 83 bf 90 4b 81 be
       -0.25668824 -0.5943821 -1.0297002 -0.25252962
0003f0 77 74 02 bf ac cf 75 bf ef 46 f6 be 06 79 24 bf
       -0.5095896 -0.9602001 -0.48100993 -0.6424717

weight_ih_l1 f4 [320, 80]
000000 b6 6d 11 be 3d e0 96 bd 1a 24 48 be 6d 94 7e bf
       -0.14202008 -0.07366989 -0.19545022 -0.9944523
000010 f4 07 23 3e fa 74 8e be 10 40 02 3e 47 f9 5d 3e
       0.15921003 -0.2782362 0.1271975 0.21677123
000020 a9 31 6a 3d 00 82 f3 3e 3f 90 6a be ad f0 27 be
       0.057176266 0.4756012 -0.22906588 -0.16400404
000030 fc 77 dc 3e 3a 32 fb 3e 2b d3 0c 3f a6 9a f0 3e
       0.4306029 0.49061757 0.55009717 0.46992987
000040 0c 3b 09 3f 61 13 2f 3e d4 e4 a9 3d 65 15 e5 be
       0.53605723 0.17097236 0.082955986 -0.44742885
000050 b7 e3 5e 3d 3b 89 a8 bd da c1 c6 be 64 af 8f bf
       0.054416385 -0.082293 -0.38819772 -1.12254
000060 68 20 5f be fc 8a 0a 3f 9b 1f 60 bf 2f 68 40 3e
       -0.21789706 0.54118323 -0.87548226 0.18789743
000070 e8 bf f9 be 4a 63 a1 bf ef 52 02 bf c1 7c 24 3f
       -0.48779225 -1.2608426 -0.50907797 0.6425286
000080 77 bc 96 3e 5b be e9 3e 78 0f 84 3e 42 98 16 bf
       0.29440662 0.45653042 0.25793052 -0.58826077
000090 b2 dd 3c bf bd 8a 4f bf 82 ed 88 3e 30 98 43 3e
       -0.7377578 -0.8107107 0.26743704 0.19101024
0000a0 91 99 05 3e 89 7b ae be c8 8f 06 be 63 22 9e be
       0.13046862 -0.34078625 -0.13140786 -0.3088561
0000b0 6e 32 de be 77 28 dd 3e 6c f2 cd 3c 93 bd 73 3e
       -0.4339785 0.43194935 0.02514001 0.23802786
0000c0 da 3c 2f bf 45 46 99 3f 23 6d b2 be 87 8b db 3c
       -0.6845223 1.197457 -0.3484889 0.02679993
0000d0 8c dd 35 3f 8e c2 18 bf 41 05 10 bf 8a f1 62 bf
       0.7104118 -0.59671867 -0.56258017 -0.8864981
0000e0 47 4e 5f bf a1 fd a2 3e e2 38 69 be 47 8e dd 3e
       -0.87228817 0.31834128 -0.22775605 0.43272611
0000f0 68 65 09 3e 61 7e 2e bf 8c 4e e4 3e d2 13 19 3f
       0.1341759 -0.6816159 0.44591177 0.5979587
000100 dd 67 81 3f 6e 48 40 bf dc 26 03 3e 2e 9f a7 be
       1.0109822 -0.7511052 0.12807792 -0.32738632
000110 96 05 34 bf 89 7c 57 3d e7 15 ab 3e d0 57 90 bf
       -0.70321023 0.052609 0.33415148 -1.1276798
000120 cd 0a b0 3d cd 93 01 3c c3 74 60 3e fc b2 f3 be
       0.0859581 0.007908774 0.21919541 -0.47597492
000130 2e 18 d7 bd ad c0 e0 be a9 3b 9b 3d 42 83 0c bf
       -0.10502659 -0.43897 0.07579739 -0.54887784
000140 14 ea b0 bd 54 44 b8 be e7 35 09 3f 7b 9f 29 bf
       -0.08638397 -0.3598963 0.53597873 -0.6625897
000150 1d 4a 1e 3f 61 0a a4 bd 1c b8 f1 3e ea 43 23 3f
       0.6183184 -0.08009792 0.47210777 0.63775504
000160 a5 ea 8e be 49 a1 21 3f a5 de 93 3e 0f 5f e2 3f
       -0.27913395 0.63136727 0.28880802 1.768526
000170 f7 0a 3f bf bb e8 ca 3d 21 46 db bc c0 25 c3 be
       -0.74626106 0.09907671 -0.026766839 -0.38114738
000180 8f 4c 23 bf 3a 89 fc be 59 e4 09 bf 25 0c 8f bf
       -0.63788694 -0.49323446 -0.53864056 -1.1175581
000190 31 75 32 3f ca d0 6b bf 04 57 a9 bf 0d ae 69 be
       0.6971007 -0.9211546 -1.322968 -0.22820301
0001a0 7e 57 a9 bd e2 97 21 bf c7 de a7 3e 0a ec 8b 3d
       -0.08268641 -0.6312238 0.32787153 0.0683213
0001b0 06 57 d8 be 6f c1 38 bf 7a ae 3c be 3b b0 21 bd
       -0.42253894 -0.72170156 -0.18425933 -0.039474707
0001c0 19 f0 eb 3d 81 ae 20 be ee ff 31 bf 27 f3 c3 bc
       0.11520404 -0.15691568 -0.6953114 -0.023919655
0001d0 17 fa 26 3f bd dc 71 bf 43 b9 e6 bd 09 64 ea bd
       0.65225357 -0.94477445 -0.112658046 -0.114448614
0001e0 8c 48 39 be be 5b f5 be 77 fc ff 3e 07 8e ca 3d
       -0.1809408 -0.47921556 0.49997303 0.09890371
0001f0 bd 87 1a be 5b 1e 80 3f 10 21 8b 3f 22 9f 36 bf
       -0.15090843 1.0009264 1.0869465 -0.7133657
000200 fe f2 93 3d 69 04 48 bf e5 a2 01 be cb 2f e2 3e
       0.072240815 -0.7813173 -0.12659796 0.44177088
000210 89 33 29 bf 94 50 a3 3e 92 cf 62 bf c2 c3 b3 3d
       -0.6609426 0.31897414 -0.8859798 0.08777572
000220 d8 75 0e bf d3 57 d4 bf 1d 66 0e 3c 27 12 62 3e
       -0.55648565 -1.6589302 0.008691338 0.22077237
000230 eb 5e 64 3f 55 0f ad 3d 20 a6 05 3c 5e 3c cf 3e
       0.89207333 0.0845019 0.008157283 0.40475744
000240 ab c7 e1 be ae 46 2d bf 47 10 85 3f f4 40 de be
       -0.44097647 -0.67685974 1.0395592 -0.4340893
000250 fc c2 b4 3f 5f a8 f4 3e 74 a3 e5 3e a1 94 69 be
       1.4122005 0.47784707 0.44851267 -0.22810604
000260 cb 47 73 3f 06 15 cf be ad c0 b4 be 3a 34 c9 be
       0.9503142 -0.40445727 -0.3530325 -0.39297658
000270 6f 08 22 3f 53 72 4a bf a1 60 cf bc 2e 09 4e be
       0.6329412 -0.79080695 -0.025314631 -0.2012069
000280 51 4e 60 bf 1b f1 0d bf 54 58 ef bd 57 64 a2 bd
       -0.876195 -0.5544602 -0.11686769 -0.079292946
000290 65 86 0a 3f 3d 87 9e 3f 77 62 a1 be 5d 4a db 3e
       0.5411132 1.2385021 -0.31520435 0.42830172
0002a0 3f d3 ad bf 88 05 0d 3f 4c b6 84 bf e4 ed 2e 3f
       -1.3580092 0.55086565 -1.0368133 0.6833174
0002b0 9c 0f 7b 3f 48 9c dc 3f d9 bc 66 be 2f fd a7 be
       0.98070693 1.7235193 -0.22532977 -0.3281035
0002c0 c6 aa 32 3f 76 19 6d be 80 eb ee bd 29 d5 8e be
       0.6979183 -0.23154244 -0.11666012 -0.27897003
0002d0 17 17 69 3c ef ba 57 bf 1c 0f 82 bd 9f 4e 62 3e
       0.014226696 -0.84269613 -0.06350538 0.22100304
0002e0 f8 f9 32 3e a0 9e aa 3e 3a e7 71 3c b3 8c 80 be
       0.17478168 0.33324146 0.014764601 -0.25107345
0002f0 00 bd ca bf 75 6d 05 bf e6 f1 20 be 65 2c 23 3f
       -1.5838928 -0.52120143 -0.15717277 0.63739616
000300 08 de df 3d ff d6 1c 3e 44 38 80 be f6 d5 24 bf
       0.10931021 0.1531639 -0.25042927 -0.6438898
000310 b5 83 1a bf 2c a9 03 3f 80 db 77 be 5a 83 8e 3d
       -0.6035722 0.5143001 -0.24204826 0.06958647
000320 b1 fe 7e 3e ea ad b7 bf 85 ab 98 be cb 43 00 bf
       0.24901845 -1.4349949 -0.2981836 -0.50103444
000330 3c 42 3f 3f 75 d7 c1 3d ac eb b7 3f 1c 68 f1 be
       0.7471044 0.09464923 1.4368796 -0.47149742
000340 c5 58 81 be df 0d 9c 3e 61 e8 af 3e b9 25 b9 3f
       -0.25263038 0.30479333 0.3435698 1.4464637
000350 05 f5 23 3f 8f 20 d9 be a2 70 f5 bd 1b 41 99 bf
       0.64045745 -0.42407653 -0.11984374 -1.1972994
000360 c6 ed 82 bf ae ee 0a 3f 47 87 97 3f a1 05 9d 3f
       -1.0228813 0.54270446 1.1838158 1.2267343
000370 32 2c f8 bc ce 51 a7 3f 65 b7 b9 3f 74 d8 93 be
       -0.030294511 1.307184 1.4509093 -0.28876078
000380 ab 77 57 3e 91 da be 3f 7d e9 99 3c f9 cf bb 3e
       0.21041743 1.4910451 0.018788094 0.36682108
000390 f4 b3 37 3e 80 d6 b1 3e 3b 10 8a 3e 83 23 24 3f
       0.1793974 0.34733963 0.26965508 0.64116687
0003a0 ed f0 6a 3f 5c 0a 99 be ad 05 9a bf 2c 20 17 3e
       0.91773874 -0.29890716 -1.2032982 0.14758366
0003b0 9e 9f 6f 3f 58 41 d7 be bd 6d b3 3f ac 2f 5f bf
       0.9360293 -0.4204204 1.4017864 -0.87182117
0003c0 2f 16 58 bf 12 5b 06 3d 1c ff b5 bf 3f de 4d 3e
       -0.8440885 0.032801695 -1.4218478 0.20104311
0003d0 87 33 7a 3f b4 ab 22 3f ea b7 47 3f 34 b3 44 3f
       0.97734874 0.6354325 0.78015006 0.7683594
0003e0 81 d1 46 bf 13 64 76 3e cf b1 98 be 10 3e a4 be
       -0.7766343 0.24061613 -0.29823157 -0.320786
0003f0 e9 21 cd be 77 f6 80 3f a8 9c a5 3f 73 49 f8 3c
       -0.40064934 1.0075215 1.2938433 0.03030846

weight_hh_l1 f4 [320, 80]
000000 a2 bd 8b bd 94 b0 c6 3c 43 21 29 3f 01 7e 04 3f
       -0.06823279 0.02425412 0.6606638 0.51754767
000010 69 c9 cb 3d e9 ed 01 3f 6b b2 8e 3f 12 79 7b bf
       0.09950525 0.5075365 1.1148199 -0.98231614
000020 74 63 b9 bf e2 53 91 3f 8c 4d 06 3f f2 56 29 bf
       -1.4483476 1.1353724 0.5246208 -0.66148293
000030 55 8c 9d 3d c0 02 53 bf 29 46 24 3e 6d 50 1a 3f
       0.07692782 -0.8242607 0.16042389 0.6027897
000040 dc d4 41 3f f4 5a 2e 3e a7 6f 01 bf cf a0 a9 3e
       0.7571542 0.17026883 -0.5056099 0.331305
000050 57 f5 4c 3f 46 b4 5f be 37 78 82 bf 34 b4 12 3f
       0.8006186 -0.21846113 -1.0192937 0.5730622
000060 d8 17 02 bf 70 e3 53 bf 29 d9 9c 3f aa 0f 34 3f
       -0.5081763 -0.8276892 1.2253772 0.703364
000070 4b 96 ab 3f 10 3c 0b bf 0d a7 64 3d 39 40 e3 3f
       1.3405241 -0.54388523 0.055823375 1.7753974
000080 d2 fd 8a bf 6e c5 81 3f 5e 77 49 3e a9 79 fd 3e
       -1.085871 1.0138376 0.19674441 0.49506882
000090 38 74 17 3f dc c5 aa be 4c 36 f1 3e 4b ab 94 3c
       0.5916171 -0.3335408 0.47111738 0.018148085
0000a0 6b a7 60 3e 1b ca 31 bf 7c 55 8c be a1 1f 15 bf
       0.21938865 -0.69449013 -0.2740897 -0.58251387
0000b0 e6 e8 b1 3f 30 d2 e0 be 86 34 c4 bf 35 0b b1 3f
       1.38992 -0.4391036 -1.5328529 1.3831545
0000c0 61 96 a7 3f 8e 26 b3 3f ad 9d 36 3e 28 a0 e8 be
       1.3092767 1.3996141 0.17833586 -0.4543469
0000d0 fc 58 44 be f9 13 57 bf 4c 3b 0b bf 0e 01 db be
       -0.1917457 -0.8401485 -0.54387355 -0.42774242
0000e0 5d 40 a0 3f 96 19 91 3e 4e 26 ab bf 6f 0c 6f 3f
       1.2519642 0.28339833 -1.3371065 0.9337835
0000f0 b0 ac 1f 3f 4a 14 5b bf cd 42 b9 3e 2b 4d 48 bf
       0.62372875 -0.85577834 0.36183777 -0.7824275
000100 bc b6 6d 3e c4 c9 30 bf e3 10 e9 bd 4e 87 ae 3f
       0.23214239 -0.6905787 -0.11380174 1.3635042
000110 7a 6e 97 bf c0 8e 91 be 4a 37 0b bf 80 ad 87 bf
       -1.183059 -0.28429222 -0.5438124 -1.0599823
000120 1c 5d f7 3f 75 55 43 bf b5 4c 8a 3f f8 38 95 3f
       1.932529 -0.7630227 1.0804659 1.165801
000130 1a 12 a0 bf a4 06 14 3f ff c5 35 be 68 5f e5 3e
       -1.2505524 0.5782263 -0.17751311 0.44799352
000140 f9 40 d4 bf bb a4 7c bf ac 0c 0b 3f 35 1c 47 3e
       -1.6582328 -0.9868886 0.5431621 0.19444354
000150 d2 e4 51 3f ae 4e e8 be 5c 36 19 be ef 7c 66 3f
       0.8198978 -0.45372528 -0.14962143 0.90034384
000160 98 e5 02 bf 94 4d 00 3f f1 59 08 bf c7 ae 03 bf
       -0.5113158 0.50118375 -0.5326224 -0.51438564
000170 15 74 ca 3d 2b 63 fa be 8d fd 3d 3f d6 db 31 3f
       0.09885422 -0.48903784 0.7421501 0.6947607
000180 a6 89 dd 3e bb d9 11 3e 2a c9 00 3e a0 27 35 be
       0.4326908 0.14243214 0.12576738 -0.17690897
000190 05 76 b5 be 44 ec 24 3f 71 db 00 40 54 7b 0b bf
       -0.35441604 0.6442301 2.0133936 -0.5448506
0001a0 32 14 b0 3f df 9d 8d be 3e c1 58 bd ab 98 13 3f
       1.3756163 -0.2765951 -0.052918665 0.5765483
0001b0 59 36 e9 be 43 4b d7 3e 88 4e 2b 3f 6a 1e 3a 3f
       -0.45549276 0.42049608 0.66916704 0.7270266
0001c0 ee 4f 28 bf 2d b2 33 3f 17 00 04 bd 50 fa 47 3f
       -0.65746963 0.7019375 -0.03222665 0.7811632
0001d0 34 2e a0 bf ef e1 1f be 6a 36 19 be c3 b4 7e be
       -1.25141 -0.1561353 -0.14962164 -0.24873643
0001e0 cc 6b 14 bf a3 06 0e bf c4 d2 7c 3f 93 b8 59 bf
       -0.57976985 -0.55478877 0.987591 -0.8504726
0001f0 61 77 9d bc 82 b6 fa bd d6 50 8f be 37 6e 02 bf
       -0.019221963 -0.12241842 -0.2799136 -0.50949425
000200 5f 9a b8 3e b7 8b 29 3e 2e ee 83 bf d5 e5 37 3f
       0.36055276 0.16557203 -1.0307062 0.7183507
000210 aa 20 b3 bd 17 32 3a be 20 8f 30 bf e9 73 7e bf
       -0.087464646 -0.1818317 -0.6896839 -0.99395615
000220 16 49 93 bf 13 47 82 3f a8 c4 ad bd a4 3e c2 3e
       -1.1506679 1.017794 -0.08484775 0.37938416
000230 26 7d 80 3f 37 02 9a bf 14 5a a0 bf 80 ff 05 bf
       1.0038192 -1.2031926 -1.252749 -0.5234299
000240 e2 2f 0e bf 84 58 69 be d6 70 7b bf d1 d8 0b 3f
       -0.55541813 -0.22787672 -0.9821905 0.5462771
000250 89 05 1b bf 61 9b ca bf c3 3f 1f 3f d4 4a bb bd
       -0.6055532 -1.5828668 0.6220667 -0.09145132
000260 d9 85 e2 3e 58 3b 8e bf 8d 56 f2 3e e1 14 a8 3d
       0.44242743 -1.111186 0.47331658 0.08207107
000270 f5 63 ab 3f 38 b9 00 3d e5 2e 8c bf 15 b5 4a bf
       1.338988 0.03142664 -1.0951811 -0.7918256
000280 9d 6f 31 be f4 3f cb bf e7 bf 12 bf e6 11 3b 3f
       -0.17327733 -1.5878892 -0.5732407 0.73074186
000290 10 13 9a bf 4f bf fd be 38 fc 17 bf 83 fc 98 be
       -1.2037067 -0.4956002 -0.5936923 -0.2988015
0002a0 2b 16 94 3e 2e 0f b1 3d 2e 7a f0 3e 27 42 49 3d
       0.28923163 0.086454734 0.46968216 0.049135353
0002b0 61 6d c8 bf 11 f3 f8 3e 36 85 a3 3e f7 af 3f 3f
       -1.565838 0.48622945 0.3193757 0.74877876
0002c0 1e 52 cd be c2 b7 7f 3e cb d9 07 3f a8 9c 5b 3f
       -0.40101713 0.24972442 0.530667 0.85785913
0002d0 a7 08 a8 bb 0f 45 ef 3d 2b 08 5c bd cb 09 9b 3e
       -0.0051279846 0.11683094 -0.053718727 0.3028091
0002e0 a2 d5 3f 3f 5b 20 1b 3f 3f a6 c9 3e 24 a8 84 bf
       0.7493535 0.60596246 0.39384648 -1.0363812
0002f0 86 e9 98 3f dc 67 94 3d 22 18 7c 3f db 01 26 bf
       1.1946266 0.07246372 0.98474324 -0.6484658
000300 f7 33 a7 bf 83 f3 f9 bb 59 b2 e2 bd 66 c8 f9 bd
       -1.3062733 -0.007627906 -0.11069173 -0.12196426
000310 38 db 41 be d2 64 77 3e 87 64 9f bc df 1d 3b bf
       -0.18931282 0.24159554 -0.019457115 -0.73092455
000320 af cd d6 be 64 d2 6c 3f 8e fb 3f bf 94 a7 81 3e
       -0.419538 0.9250853 -0.74993217 0.25323164
000330 b7 a7 69 3e ae 04 95 bb 57 c1 c0 3c 41 c3 96 be
       0.22817884 -0.004547677 0.023529692 -0.29445842
000340 48 b2 95 bf 4f e8 3a 3e 3d fc 9e be 7d ff b5 3e
       -1.1695032 0.18252681 -0.31051818 0.35546485
000350 f7 59 8b bf b7 df e1 3c 0b a7 8e 3e e7 d8 1d bf
       -1.088683 0.027572496 0.2786182 -0.6165909
000360 b1 d0 1e bf 39 d1 0d 40 38 18 c2 be ed 8f d2 3b
       -0.6203719 2.215895 -0.37909102 0.0064258487
000370 7e b6 3e 3e c0 42 2a 3f aa 51 91 bd 14 fe 29 3f
       0.18624303 0.665081 -0.07095654 0.6640332
000380 32 c6 09 bf 2b e1 b6 bf e5 39 d3 be cf b4 13 bd
       -0.5381805 -1.4287466 -0.41255108 -0.036061104
000390 80 d2 07 be cc d0 8b 3f 15 db be 3d 33 5c 8a 3b
       -0.13263893 1.0923095 0.0931913 0.004222417
0003a0 da 37 d9 3f 9d dc 3b 3e 85 e6 f8 3d 6e ff 5a 3c
       1.697017 0.18345876 0.12153343 0.013366563
0003b0 41 15 4f 3f 91 84 92 3d f6 64 b3 3d 77 e1 fb 3e
       0.80891806 0.07154191 0.08759491 0.49195454
0003c0 7c 9c ba bb da 18 4e 3e 71 3d c7 3c 2f e7 60 3f
       -0.005694924 0.20126668 0.02432129 0.8785276
0003d0 b8 13 00 bf d2 52 f3 3e d8 62 b7 3e 1f 4d 76 3b
       -0.5003009 0.47524124 0.358176 0.003758259
0003e0 06 43 78 be 18 e1 04 3f 66 00 15 3f cc 61 24 3f
       -0.24244317 0.51905966 0.5820373 0.64211726
0003f0 a1 56 63 3f cb ec 4d bf 5f e7 1e bf 64 7f 6b 3f
       0.8880406 -0.8043944 -0.62071794 0.9199126

bias_ih_l1 f4 [320]
000000 64 d1 05 bf 6d 61 5a bf 0f e0 75 bf 10 0f 98 bf
       -0.5227263 -0.8530491 -0.9604501 -1.1879597
000010 5c 2a 70 bf 58 e0 4e bf e8 f7 83 bf 55 3f 23 bf
       -0.93814635 -0.8081107 -1.031003 -0.6376851
000020 89 5e 3d bf 2a 49 a9 bf c6 1b 94 be e8 6d 8d bf
       -0.73972374 -1.3225453 -0.2892744 -1.1049166
000030 61 af 41 bf 74 04 ac bf 70 1b c2 bf bd 57 92 bf
       -0.7565823 -1.3438859 -1.5164623 -1.1433026
000040 36 db 3c bf ad b7 0d be 6e 21 b4 bf ce c9 a3 bf
       -0.7377199 -0.13839598 -1.4072702 -1.2795961
000050 cb 51 34 bf e2 bd 82 bf 75 be 38 bf d6 69 a9 bf
       -0.70437306 -1.0214198 -0.72165614 -1.3235424
000060 26 67 34 bf 01 e6 3b bf 24 a8 80 bf 37 c9 02 bf
       -0.7046989 -0.73397833 -1.0051312 -0.5108828
000070 fb 67 85 bf 8b db 8e bf 7e 7a 87 bf ee b0 25 bf
       -1.0422357 -1.1160749 -1.0584257 -0.647231
000080 c2 63 5a bf b7 fe 28 bf 94 86 b5 bf aa 1b 14 bf
       -0.8530847 -0.66013664 -1.4181695 -0.5785471
000090 d5 b7 3b bf 1e b7 a8 bf 5a 17 7b bf fd c6 a7 bf
       -0.7332738 -1.3180883 -0.98082507 -1.3107601
0000a0 b1 1d 9d bf 89 f8 38 bf d0 21 bd bf 1a 14 68 bf
       -1.2274686 -0.72254235 -1.4775944 -0.9065567
0000b0 51 3c 7b bf 0f 5c 85 bf b9 54 69 bf 57 e1 4c bf
       -0.9813891 -1.0418719 -0.911449 -0.8003134
0000c0 7f 60 b9 bf ff d5 03 bf 00 76 8a bf 82 ab ce be
       -1.4482573 -0.5149841 -1.0817261 -0.40365225
0000d0 7b 5c 8e bf 3f 08 19 bf d5 2f a3 bf 39 e9 b3 bf
       -1.1121973 -0.5977821 -1.2748972 -1.4055549
0000e0 2e 8e 8b bf 60 d4 7b bf 03 b9 86 bf c2 4f 0c bf
       -1.0902765 -0.98370934 -1.0525211 -0.548092
0000f0 fd 81 3d bf 6a 64 3c bf d1 df 8e bf f2 3a 82 bf
       -0.7402647 -0.7359072 -1.1162053 -1.0174239
000100 cf a7 9c bf 6a ed 4d be d9 40 8b bd a5 48 92 bf
       -1.2238711 -0.20110098 -0.06799478 -1.1428419
000110 17 75 61 bf 44 47 87 bf 86 b6 80 bf 0d 8d 97 bf
       -0.8806929 -1.0568624 -1.0055702 -1.183992
000120 a3 ae 6a bf ba 83 88 bf 6e 51 84 bf 3f ef 0c bf
       -0.91672724 -1.06652 -1.033735 -0.5505256
000130 45 3c a4 bf fd fe 0c 3e c4 0b 09 bf 75 3a 90 bf
       -1.2830893 0.13769145 -0.5353358 -1.126784
000140 4f 1b 6c bf 30 6d 78 bd eb d2 60 3d 16 26 3d bf
       -0.9222917 -0.060651004 0.054888647 -0.7388624
000150 d9 90 c6 bc 14 8a bb be e2 cd 85 3e 8b b9 bc bd
       -0.02423899 -0.36628783 0.2613364 -0.09215077
000160 f9 fc 15 3f 9e 68 82 bf ee da 9b 3e d1 1a fa be
       0.5858913 -1.0188177 0.30440468 -0.48848584
000170 5e bc 86 3e ea 13 e8 3b 51 46 eb be c8 50 82 bf
       0.26315588 0.007082452 -0.45952085 -1.0180902
000180 d3 29 0e bf f1 bd 2d 3e b8 5d 17 bf 70 38 19 be
       -0.5553257 0.16966988 -0.5912738 -0.14962935
000190 0d 47 bf bb 2c 55 ea 3e 83 52 9a be 26 4b 6f bf
       -0.0058373273 0.45768106 -0.30141076 -0.9347404
0001a0 8d 1f 6a 3e a3 f8 c4 be 55 82 77 3e dd 24 9b be
       0.22863598 -0.38470945 0.24170811 -0.30301562
0001b0 c9 55 9f 3e 0b 3d 6a bf 21 df 38 3e e9 88 31 be
       0.31120136 -0.91499394 0.18053867 -0.17337383
0001c0 a0 99 0f 3f a9 6c 98 3e 2e a1 8b bf 80 d0 c8 bd
       0.5609379 0.297704 -1.0908563 -0.09805393
0001d0 a4 0a da bc 27 02 61 bf 68 5b 9f be 14 12 a8 3e
       -0.026616402 -0.8789391 -0.31124425 0.32826293
0001e0 cb 13 ac be 31 21 8e bf 3d 87 ac be ad ee 85 bf
       -0.3360885 -1.1103879 -0.3369693 -1.0463463
0001f0 ea 2b d2 be 2d a5 c7 be 93 1a 87 bd 53 00 e6 3d
       -0.4104913 -0.38993207 -0.065968655 0.112305306
000200 70 9e 11 bf ea db 99 bd 0d dc 85 bf 03 ad cf bd
       -0.5688238 -0.075126484 -1.0457779 -0.10140421
000210 cc 62 32 bf 64 8f 97 be 56 66 b7 bf 7f 27 78 bf
       -0.69682 -0.29601586 -1.4328105 -0.96935266
000220 84 fa c3 3d 1d c2 49 3f 09 fc 33 be 56 aa 40 bf
       0.095692664 0.7881182 -0.17576613 -0.7525991
000230 68 2b 46 bf 43 43 87 be fe 14 ab bf f9 94 ad 3d
       -0.7740998 -0.26418504 -1.3365781 0.0847568
000240 6a 39 6b be 5b 55 aa be 3c b8 c9 be 31 ff a9 be
       -0.2297112 -0.33268246 -0.39398372 -0.33202508
000250 14 1c 86 bf c0 fe ac be f2 fb 37 be a3 3e b4 be
       -1.0477319 -0.3378811 -0.17967203 -0.35204038
000260 b5 bf 4a bc 92 23 13 bf 32 2b fb be df 03 02 bf
       -0.012374808 -0.5747615 -0.49056393 -0.50787157
000270 92 66 96 bf fe d8 0f 3f 23 06 19 3d 9c ff c3 bd
       -1.1750052 0.5619048 0.037359368 -0.09570238
000280 63 b4 56 3e b5 60 3b 3e 9c 51 82 3b 00 a5 45 be
       0.2096725 0.1829861 0.0039770138 -0.19301224
000290 ef bd 02 3f 89 fa 68 3e ba c6 cf be 93 50 41 bd
       0.51071066 0.22751822 -0.40581304 -0.047195982
0002a0 24 a9 a1 3e 3f 7b 00 be 76 3d 86 be c7 e9 1b 3e
       0.31574357 -0.12547015 -0.26218766 0.15225898
0002b0 be 84 93 3e f5 41 bd bd 47 d3 04 3e cd f9 42 be
       0.28812212 -0.09241096 0.12971221 -0.19040604
0002c0 f4 aa 0f 3f 6d 97 b6 3e 95 59 7c 3d 59 36 23 be
       0.5612023 0.35662404 0.06160887 -0.159387
0002d0 b8 47 bf 3e e4 3b db bd 80 50 7a 3d 9f 6d a2 3e
       0.37359405 -0.107047826 0.061111927 0.3172426
0002e0 21 d0 db bd da 02 2c 3b 08 97 82 3e 33 4e d1 bb
       -0.10733057 0.0026246817 0.25505853 -0.006387496
0002f0 ce 60 08 3e f6 72 bd bc 4c 30 d5 be dd d0 91 3e
       0.13318178 -0.023126107 -0.4163841 0.28479663
000300 94 e3 9e 3d 1b a5 00 be 86 ee 73 bd 28 a4 25 3d
       0.07758251 -0.12562983 -0.059553646 0.040439755
000310 34 39 85 3d bf a6 56 be eb 5e 66 bd 5f d1 2d be
       0.06505051 -0.20962046 -0.056242865 -0.169744
000320 b4 48 60 be 1b 31 47 3d c4 fd 2d be cd 5d fb 3c
       -0.21902734 0.048630815 -0.16991335 0.030684376
000330 11 b5 cb bc 12 6d d0 bd 9d 33 58 be 61 2c fa ba
       -0.024866613 -0.101770535 -0.21113439 -0.0019086712
000340 34 4e 4b 3d 77 2f 80 bd 2c 9f 12 bf 70 bb d1 be
       0.049635127 -0.06259053 -0.57274127 -0.40963316
000350 82 ae b8 3d a6 21 81 be 4f 93 45 be 98 e9 91 3d
       0.0901766 -0.25220984 -0.19294475 0.071246326
000360 cb 7e ae 3e 01 c7 ca bd 7c ba 22 3e 91 39 ca 3e
       0.3408111 -0.09901238 0.1589145 0.39497045
000370 74 c5 ce bd 7f 9c 42 3e 56 23 bc 3e 5c bd d3 3d
       -0.10096255 0.19005011 0.3674571 0.10338852
000380 a7 ee 47 3d 28 0c cb be d6 85 36 be 19 bf 10 3c
       0.04881158 -0.39657712 -0.17824492 0.008834624
000390 38 14 d6 be c3 73 e6 3a 0d e7 4f 3d 30 0a 08 be
       -0.418123 0.0017582107 0.050757457 -0.13285136
0003a0 eb ce 59 3d 46 e8 87 3d 74 23 6f be 16 ad 78 3e
       0.053175848 0.066360995 -0.23353368 0.24284777
0003b0 dd b9 4c be 78 c4 e5 3e c2 21 82 3e 43 47 46 bd
       -0.19992776 0.44876456 0.2541638 -0.048407804
0003c0 aa 4b 81 bf 12 86 22 bf 91 7d 32 bf da 92 92 bf
       -1.0101216 -0.63485825 -0.6972285 -1.1451066
0003d0 55 f8 c0 be 68 38 57 bf 25 40 3e 3d 75 ee 1f bf
       -0.37689462 -0.84070444 0.04644789 -0.6247323
0003e0 7f d5 50 3d 93 57 0f bf da 7f 6e bf 40 83 1c bf
       0.050984856 -0.55993 -0.93163836 -0.6113777
0003f0 97 2b 05 bd 47 07 58 bf 6e e6 f9 be 90 ef a0 bf
       -0.032512274 -0.84386104 -0.48808616 -1.2573109
