src/online-model/model/with_MPC_no_weight_weighted_normal_up_to_300_model=LSTM,layers=2,forecast=10,input_length=50.pt (torch, 390307 bytes, 10 tensors)

weight_ih_l0 f4 [320, 56]
0.8365786 -0.55831933 -0.4387239 -0.24704821 0.34253865 0.06353561 0.076689884 0.13394624
1.1418726 -0.36343727 -0.20050476 -0.45262784 -0.30918068 0.2444713 -0.37850186 0.8829717
0.24270335 -0.3209307 0.46504346 -0.35318515 -0.60293883 0.31109276 -0.32092178 0.48567757
0.20173787 -0.06570663 -0.5953271 0.011484525 0.39187652 0.16933523 0.0066918675 0.43966404
0.02458298 -0.24188574 0.27589163 -2.0413408 -0.6201347 -0.5015299 0.06840013 -1.2394285
0.9780045 -0.019612728 0.38066706 0.7852334 -2.0419128 0.904519 0.49212307 0.5646148
-0.43096364 0.24277991 -0.39863145 -0.3256069 -0.22833622 1.0159956 -2.2188299 0.37008518
0.5628212 -0.43274575 -0.78170615 -0.8181737 0.76748425 0.17245229 0.22485141 0.21390179
-1.7601844 -0.9226635 -0.9081886 -0.77200973 -0.9189555 0.78580755 -0.7946334 -2.2887454
0.95003074 -0.8198854 1.1593981 -0.53224397 0.14530942 -0.1866077 -0.10267672 -0.61803544
-5.933318 -5.962326 0.12858014 -0.07640339 0.08358424 -0.13593161 -0.1073298 0.026569288
-0.028565895 -0.9233348 0.7378276 0.9181348 0.037963517 -0.005730271 0.58732265 -1.1135998
-2.1678216 -0.19366364 -0.10624392 -0.37308395 -0.896796 0.049759675 -0.021482693 -0.07969002
-0.6099938 0.77117956 -0.8245071 -0.38597178 -0.5998332 0.38911805 0.07003453 0.8612039
-0.3027537 -1.2661093 -1.1694692 -0.96063876 0.81447214 0.0249999 0.0047326777 -0.12224517
-4.6098895 -0.89402544 -0.88874084 -1.0395331 -0.88845974 0.89093995 -0.8544739 -4.326821
0.85636765 -0.95775753 0.25341606 0.2707155 -0.52752036 -0.26517937 -0.6263971 -0.31075665
0.5278154 0.258619 1.2426715 -0.6555407 -0.6904072 -0.674208 -0.6439378 -0.5629528
-0.6476264 -0.9704628 0.95542395 -0.13321081 -0.059775066 1.0597177 1.041624 0.27949917
-4.4022 -0.7459468 -0.5605346 -0.6257242 1.802098 1.3187594 0.4543711 0.3252831
-1.2344686 0.8331041 -0.92364097 -1.0386072 -1.037354 -0.11699777 -1.591744 0.9268271
-0.2964446 -1.6380054 -0.6876686 -0.5073782 0.49233034 0.045157813 0.24275531 0.0844773
0.16094302 -0.4528295 -0.45149234 -0.615298 -0.5722656 0.55610085 -0.46973065 -0.90879846
0.43433493 -0.5073278 0.25138128 0.05382656 0.20977977 0.4531587 0.16797988 0.32600182
-0.28474763 -0.31197533 1.8608277 -0.479864 0.19477943 -0.46571195 -0.36686695 0.13793713
-0.53375006 -0.52569705 0.45294863 0.007848523 -1.4528852 1.0224198 -1.3568928 -0.5937432
-0.43012807 -0.4229524 0.21537162 -0.2738809 3.4476159 -0.4304843 2.123868 2.1530533
-0.62496716 0.557312 -0.53541815 -0.3090262 -0.5061984 -0.5054845 -0.30259588 0.50863874
0.3840126 -1.4666604 -0.7292408 -0.35542837 0.44796497 -0.09315603 0.10691732 0.043151695
-1.8117568 -0.42581192 -0.3849516 -0.645274 -0.4073288 0.39372733 -0.41358343 -1.8560991
0.4534411 -0.5073253 0.817836 -0.8294597 0.22612408 0.3439981 -0.16124198 -0.09321185
-1.8176106 -1.801108 1.5451566 0.3958663 0.91798776 0.40930614 0.40411097 0.786611
00000000: 042a 563f 04ee 0ebf 6ba0 e0be 35fa 7cbe
00000010: 3a61 af3e f51e 823d 960f 9d3d 3429 093e
00000020: e228 923f 7314 babe 1f51 4dbe d6be e7be
00000030: ee4c 9ebe af56 7a3e ffca c1be 6f0a 623f
00000040: 3a87 783e 0751 a4be 2d1a ee3e afd4 b4be
00000050: 335a 1abf 8d47 9f3e dc4f a4be bbaa f83e
00000060: 5f94 4e3e 3391 86bd 5b67 18bf 9729 3c3c
00000070: 0aa4 c83e 3766 2d3e 7447 db3b a51b e13e
00000080: 3f62 c93c e5b0 77be ab41 8d3e 54a5 02c0
00000090: 26c1 1ebf 4364 00bf 5e15 8c3d 98a5 9ebf
000000a0: 815e 7a3f dfaa a0bc cbe6 c23e 0e05 493f
000000b0: b3ae 02c0 8f8e 673f 8ef7 fb3e 988a 103f
000000c0: 44a7 dcbe 4c9b 783e 6c19 ccbe f3b5 a6be
000000d0: f8d0 69be 250c 823f 4f01 0ec0 ce7b bd3e
000000e0: 0d15 103f da90 ddbe e51d 48bf d573 51bf
000000f0: d979 443f 5597 303e 733f 663e 1209 5b3e
00000100: b94d e1bf ad33 6cbf 0c7f 68bf 6ea2 45bf
00000110: ab40 6bbf af2a 493f 186d 4bbf ce7a 12c0
00000120: 3735 733f 02e4 51bf 2867 943f 2441 08bf
00000130: fecb 143e 1716 3fbe 2c48 d2bd 9237 1ebf
00000140: bedd bdc0 60cb bec0 83aa 033e 6179 9cbd
00000150: 372e ab3d a831 0bbe bacf dbbd d6a7 d93c
00000160: 0603 eabc ab5f 6cbf 45e2 3c3f e20a 6b3f
00000170: a27f 1b3d ffc4 bbbb c75a 163f 708a 8ebf
00000180: 97bd 0ac0 c34f 46be 6a96 d9bd dc04 bfbe
00000190: 6c94 65bf cdd0 4b3d 79fc afbc 8534 a3bd
000001a0: 8e28 1cbf 066c 453f e612 53bf 189e c5be
000001b0: ab8e 19bf 7b3a c73e 436e 8f3d dc77 5c3f
000001c0: 8802 9bbe df0f a2bf 2bb1 95bf 6cec 75bf
000001d0: 3f81 503f 97cc cc3c 9414 9b3b ad5b fabd
000001e0: 3784 93c0 dade 64bf 8584 63bf 6c0f 85bf
000001f0: 1972 63bf a414 643f cdbe 5abf 5175 8ac0
00000200: e93a 5b3f 992f 75bf c0bf 813e 399b 8a3e
00000210: 930b 07bf 97c5 87be 8f5b 20bf 7f1b 9fbe
00000220: e91e 073f b669 843e dc0f 9f3f 84d1 27bf
00000230: 87be 30bf e598 2cbf 1cd9 24bf ad1d 10bf
00000240: d8ca 25bf 4070 78bf aa96 743f 6a68 08be
00000250: b3d6 74bd d4a4 873f ef53 853f 841a 8f3e
00000260: d3de 8cc0 5ff6 3ebf 327f 0fbf 762f 20bf
00000270: 26ab e63f 1ccd a83f 54a3 e83e 828b a63e
00000280: 1103 9ebf 4f46 553f bc73 6cbf 15f1 84bf
00000290: 04c8 84bf 879c efbd 44be cbbf 8a44 6d3f
000002a0: 96c7 97be 29aa d1bf 0d0b 30bf 8ae3 01bf
000002b0: b912 fc3e 66f7 383d d994 783e 6f02 ad3d
000002c0: 3fce 243e 45d9 e7be 012a e7be 2b84 1dbf
000002d0: 0080 12bf a05c 0e3f 8980 f0be 04a7 68bf
000002e0: 2661 de3e 3ce0 01bf 0cb5 803e 3d79 5c3d
000002f0: 82d0 563e 6b04 e83e eb02 2c3e b6e9 a63e
00000300: 71ca 91be 3bbb 9fbe 9a2f ee3f bcb0 f5be
00000310: 4274 473e cc71 eebe fcd5 bbbe 643f 0d3e
00000320: d8a3 08bf 1594 06bf e2e8 e73e 1797 003c
00000330: 24f8 b9bf a7de 823f aaae adbf 8eff 17bf
00000340: bf39 dcbe 388d d8be 618a 5c3e 1e3a 8cbe
00000350: bda5 5c40 7068 dcbe 74ed 0740 a0cb 0940
00000360: d9fd 1fbf 00ac 0e3f 2a11 09bf af38 9ebe
00000370: 3896 01bf 6f67 01bf d9ed 9abe 2636 023f
00000380: 4d9d c43e 87bb bbbf 86af 3abf b5fa b5be
00000390: aa5b e53e 97c8 bebd 78f7 da3d d5bf 303d
000003a0: a6e7 e7bf 0504 dabe 6018 c5be ad30 25bf
000003b0: 678d d0be a196 c93e 35c1 d3be a894 edbf
000003c0: 6f29 e83e 12e0 01bf b35d 513f 7957 54bf
000003d0: 128d 673e 8520 b03e 9e1c 25be dbe5 bebd
000003e0: 77a7 e8bf b58a e6bf b1c7 c53f fdae ca3e
000003f0: 3f01 6b3f 9390 d13e a2e7 ce3e 575f 493f

weight_hh_l0 f4 [320, 80]
0.45088518 0.14542967 -0.0028561428 -0.0034317535 0.5365142 -0.6687951 -0.79243827 -0.07101189
0.26134378 -0.3010475 -0.6008132 0.7598149 0.1325287 0.29342887 0.18763073 -0.47946814
-1.2222698 1.4211744 0.54155135 -0.110827334 -0.17412995 -0.66998434 -0.80339676 0.39864475
0.46186116 1.5161939 -0.4150634 0.9373687 0.37474924 1.1365249 -0.78184193 -0.42579168
-0.64695436 -0.24170995 -0.85558474 0.2823654 0.05195286 -0.714209 0.030265685 1.1612206
-0.13698436 -1.3562264 0.86619407 0.90973127 0.19006924 0.44256398 -0.12063151 -0.27716058
-0.45048633 0.26377854 -0.32012752 0.5134131 1.0215285 0.092225544 -0.750042 -0.658294
0.2923472 -0.97966635 -0.02714834 -0.38691035 -0.1714833 -0.8505871 1.3735257 0.25301108
-0.048770856 -0.13263616 0.37157294 0.015533215 0.911211 0.6001428 -0.40942624 -0.26350945
0.07861989 1.1466184 -0.06642224 0.4135869 -0.5173418 0.510733 -1.5263214 -0.389341
-0.8070007 0.37633735 0.11745803 1.4221083 -0.059369195 0.0718016 -0.21698618 -0.6224647
-0.81403697 1.4527643 -1.2941376 0.5218524 0.22479628 0.92675364 0.6932857 0.54740906
-0.27202716 0.7010927 0.22573073 0.25316772 -0.10009636 -0.7017228 0.050982695 0.42685354
-0.3409218 -1.4307815 0.33194423 -0.10895273 0.3953678 -0.5438186 0.046106197 -0.6216988
-0.18773122 0.070742965 -0.5007457 -0.12620848 0.5321643 -0.25762546 0.09014449 0.78169256
1.6384711 0.31089607 -0.33441252 0.70278656 1.3460354 0.48971957 1.3620281 0.38031098
0.86788285 -0.19496323 0.5773458 1.6466957 1.7010652 0.5378982 0.21163768 0.31004542
0.6922884 0.48750252 -1.1158272 0.6623349 -0.44332436 0.95717466 1.3160853 -0.159295
0.46592054 0.6275025 -2.5807743 0.023904268 0.36149052 1.0071535 -0.18044332 1.21756
-0.54913014 -0.4572152 0.45955905 -0.48498175 -1.1103486 -0.9121327 0.18437879 -1.9550188
0.07563623 0.079173535 -1.0513713 0.09674574 -0.26335075 0.43258864 0.0922713 0.31250304
-0.42696905 0.010542871 -0.167772 -0.041638788 -0.6279371 -0.2459816 2.022292 0.38556117
-1.1266397 -0.47385433 -1.7947 -0.57770115 0.34419414 0.2057891 0.44138855 0.17424811
0.34502393 -1.7274967 -1.081998 -0.4383357 -0.012309754 0.07771624 -0.35527852 0.6650603
-0.04459019 -0.58823085 -0.35091424 -0.82070893 -0.965672 0.1711495 0.47536615 0.8346334
1.3342252 1.5679766 0.10339527 0.6015455 -0.31163678 -0.03652032 -0.27196628 -1.4084313
0.3433856 0.47658855 0.43336052 0.40439448 -0.63802725 -0.22418693 0.043868307 0.16530213
-0.4717608 1.4555712 -0.12918317 0.75270265 0.14205006 0.2727403 -0.11373991 1.2571576
0.19953515 -0.3394424 -0.6184027 -0.44367105 -0.94940174 -0.60112274 0.1919098 -0.32515597
0.028078046 0.20377482 0.84959465 0.07071581 0.21247633 -0.2612735 -1.4812921 -0.8963962
-1.3051769 1.6373893 0.3101967 0.16649796 0.07989763 0.66586375 -0.6306294 0.22781281
1.2082207 -0.1610337 0.06855233 0.09052477 0.527461 0.37680304 0.21248727 0.74869245
00000000: 6cda e63e 84eb 143e 202e 3bbb 45e7 60bb
00000010: ff58 093f 2836 2bbf 3cdd 4abf af6e 91bd
00000020: dace 853e e622 9abe e5ce 19bf 3b83 423f
00000030: 9bb5 073e 4f3c 963e 4522 403e d97c f5be
00000040: 5673 9cbf 0be9 b53f 1ca3 0a3f 71f9 e2bd
00000050: 1f4f 32be 1884 2bbf 69ab 4dbf 2a1b cc3e
00000060: 1179 ec3e a412 c23f 3183 d4be 65f7 6f3f
00000070: 22df bf3e a679 913f cb26 48bf 5e01 dabe
00000080: cd9e 25bf d082 77be 9a07 5bbf 3392 903e
00000090: 86cc 543d 67d6 36bf beef f73c e0a2 943f
000000a0: a145 0cbe d498 adbf e5be 5d3f 26e4 683f
000000b0: 83a1 423e bf97 e23e a70d f7bd fee7 8dbe
000000c0: 25a6 e6be fb0d 873e c1e7 a3be 0a6f 033f
000000d0: 72c1 823f bfe0 bc3d c102 40bf f585 28bf
000000e0: 88ae 953e 6acb 7abf 3266 debc 1d19 c6be
000000f0: 5199 2fbe 14c0 59bf b1cf af3f ab8a 813e
00000100: f3c3 47bd c6d1 07be cf3e be3e 077f 7e3c
00000110: 2045 693f f5a2 193f 51a0 d1be b6ea 86be
00000120: 7703 a13d 64c4 923f 6208 88bd aac1 d33e
00000130: 8370 04bf 66bf 023f 805e c3bf b457 c7be
00000140: 9997 4ebf 4aaf c03e d68d f03d a507 b63f
00000150: 1d2d 73bd b80c 933d a031 5ebe d959 1fbf
00000160: ba64 50bf 2ef4 b93f 4da6 a5bf 1e98 053f
00000170: ff30 663e ba3f 6d3f 2c7b 313f 0023 0c3f
00000180: 2547 8bbe d07a 333f f525 673e 339f 813e
00000190: 52ff ccbd 1ba4 33bf 3bd3 503d 8c8c da3e
000001a0: 4d8d aebe d923 b7bf 98f4 a93e 9c22 dfbd
000001b0: a66d ca3e b237 0bbf dad9 3c3d a727 1fbf
000001c0: 9d3c 40be b0e1 903d df30 00bf cc3c 01be
000001d0: eb3b 083f 7ce7 83be ad9d b83d 011d 483f
000001e0: 6cb9 d13f c52d 9f3e 1e38 abbe d2e9 333f
000001f0: e34a ac3f 86bc fa3e f056 ae3f 1fb8 c23e
00000200: 922d 5e3f 71a4 47be efcc 133f edc6 d23f
00000210: 81bc d93f b2b3 093f 8cb7 583e 46be 9e3e
00000220: d039 313f ee99 f93e 6dd3 8ebf c88e 293f
00000230: 69fb e2be 6609 753f 7c75 a83f 3a1e 23be
00000240: 238d ee3e 01a4 203f 682b 25c0 e2d2 c33c
00000250: 4915 b93e 68ea 803f 22c6 38be 02d9 9b3f
00000260: cb93 0cbf 1c18 eabe 534b eb3e 874f f8be
00000270: e71f 8ebf 8781 69bf cbcd 3c3e 0e3e fabf
00000280: 2be7 9a3d bc25 a23d 5693 86bf a122 c63d
00000290: e9d5 86be 427c dd3e bcf8 bc3d 6600 a03e
000002a0: b09b dabe 02bc 2c3c 6ccc 2bbe 6f8d 2abd
000002b0: 7cc0 20bf 9ae2 7bbe 3b6d 0140 4668 c53e
000002c0: bb35 90bf 099d f2be bbb8 e5bf 39e4 13bf
000002d0: 373a b03e 61ba 523e aefd e13e 196e 323e
000002e0: faa6 b03e 9d1e ddbf e97e 8abf 896d e0be
000002f0: daae 49bc b129 9f3d 11e7 b5be 6441 2a3f
00000300: 34a4 36bd 4c96 16bf 08ab b3be fb19 52bf
00000310: 4836 77bf d141 2f3e 3163 f33e 89aa 553f
00000320: e4c7 aa3f 75b3 c83f e6c0 d33d e3fe 193f
00000330: db8e 9fbe 5596 15bd 2a3f 8bbe 7a47 b4bf
00000340: 3dd0 af3e 6a03 f43e 6ee1 dd3e cb0c cf3e
00000350: c155 23bf 4291 65be 41af 333d f644 293e
00000360: a28a f1be 2850 ba3f 9848 04be 1fb1 403f
00000370: 9275 113e 9ea4 8b3e 78f0 e8bd 8aea a03f
00000380: f152 4c3e 65cb adbe a44f 1ebf da28 e3be
00000390: fe0b 73bf 2ee3 19bf 0184 443e d87a a6be
000003a0: ee03 e63c 59aa 503e 097f 593f 73d3 903d
000003b0: 6593 593e a4c5 85be fb9a bdbf 397a 65bf
000003c0: 0910 a7bf f995 d13f 1ad2 9e3e 717e 2a3e
000003d0: 5ea1 a33d 0c76 2a3f ee70 21bf c347 693e
000003e0: faa6 9a3f 05e6 24be 2a65 8c3d 0d65 b93d
000003f0: af07 073f 54ec c03e 4396 593e 4faa 3f3f

bias_ih_l0 f4 [320]
-0.37382144 -0.9540361 -0.7937787 -0.5720591 -0.34893864 -0.6501654 -0.74065197 -0.5705397
-0.36103982 -0.36998954 -0.59617156 -0.441274 -0.76601255 -0.5805396 -0.74462026 -0.63239396
-0.65660185 -0.63278687 -0.9810237 -0.6156662 -0.5739083 -0.5413958 -0.78574646 -0.83941495
-0.1658547 -1.3324337 -1.0085942 -0.387378 -0.9546953 -0.78561527 -0.85302544 -0.70143867
-0.5106541 -0.8884504 -0.46667063 -0.7584247 -1.1812255 -0.81309766 -0.37831435 -0.72954404
-0.6913603 -0.8851996 -0.7399897 -0.53974575 -0.7977225 -0.3871895 -0.41141894 0.455992
-0.24378921 -0.514074 -0.6844384 -0.69286263 -0.049127974 -0.65835226 -0.61156005 -0.5123365
-0.70102054 -0.6472276 -0.6068132 -0.43420854 -0.6451805 -0.6785955 -0.67422885 -0.47649932
-0.46885931 -1.3538777 -0.08586044 -0.7923842 -0.45167205 -0.8630591 -0.55114144 -0.6098691
-0.5331072 -0.6785673 -0.23676749 -1.0870934 -0.4219891 -0.65800595 -0.8311153 -0.9488493
-1.7083371 -0.64673215 -0.70969415 -0.64016604 -1.3178886 -0.78920436 -1.429395 -0.04222116
-0.0983268 -0.334074 -0.8886731 -0.61195713 -1.2014772 -0.7923504 -0.20375024 -0.7234186
-0.69712377 -0.22699022 -0.19316818 -0.9972359 -0.28054237 -0.51808625 0.30972064 -1.0094769
-0.78753555 -0.3922116 -0.9888423 -0.059991695 -0.3213656 -0.46342546 -0.5957922 -0.9474666
-0.2313807 -1.5416092 -0.44403493 -1.186552 -0.62732923 -0.10940755 -0.94658923 0.4205937
-0.5147224 -0.54354614 -1.1535441 -0.20397069 -0.8724293 -0.11816272 -1.0809503 -1.0984715
-0.47885764 -0.86855686 -0.9286811 -0.51053387 0.35100636 -0.05770913 -0.7005499 -0.5822229
-0.7974485 -0.62943655 -0.95650357 -0.61926675 -0.7675701 -1.2822948 -0.5709261 0.061219297
-0.015665969 -0.7513063 -1.108269 -0.2945952 0.062336672 -0.09660728 -0.51079094 -1.4986933
-0.39970136 -0.10936792 0.30965814 -0.20455675 -1.0677112 -0.6316672 -1.4281135 -0.43771043
0.06722162 -0.2228068 0.15740061 -0.11169237 0.033662792 0.06888465 -0.24787909 0.16926229
0.14329942 0.31159538 0.12351991 -0.275529 -0.21515028 -0.021968367 -0.12773658 0.043763224
-0.002278588 0.063895434 0.56312704 0.48647526 0.0846499 -0.10770458 0.25542876 -0.051770452
-0.2529407 0.15496822 0.07406176 0.29026866 -0.08570991 -0.023746407 0.24589963 -0.103779696
0.045734525 0.080124564 0.14955154 -0.039628606 0.019686893 0.3470356 -0.19196309 -0.16714424
-0.14074156 -0.23400195 -0.20607907 -0.036286954 0.20700274 0.13285096 -0.02719706 -0.35203564
-0.111410685 0.06870787 -0.10293737 -0.1190817 -0.31529322 0.15541361 -0.28311065 -0.001046713
-0.03592093 -0.07893197 -0.2569318 -0.24257039 -0.16171311 0.00073317386 -0.1520025 -0.10401634
-0.15101723 -0.37774125 -0.23704843 -0.2823127 -0.23007613 -0.36514825 -0.015797528 0.073279895
0.13372976 -0.12005387 -0.05250241 0.3873509 -0.22737473 -0.008319377 0.20646629 0.09879788
-0.4396329 -0.4564044 -0.5346778 -0.60118544 -0.6008953 -0.37493834 -0.56783205 -0.6229661
-0.7304452 -0.5974823 -0.45255888 -0.47783256 -0.56629026 -0.7424701 -0.42594174 -0.4707903
00000000: 8665 bfbe b63b 74bf 1535 4bbf 7772 12bf
00000010: 16a8 b2be 3d71 26bf 5e9b 3dbf e40e 12bf
00000020: 36da b8be 456f bdbe b39e 18bf aaee e1be
00000030: 6619 44bf 3e9e 14bf 6f9f 3ebf 92e4 21bf
00000040: 0f17 28bf 52fe 21bf 5f24 7bbf 4d9c 1dbf
00000050: a8eb 12bf ea98 0abf ae26 49bf e6e3 56bf
00000060: d1d5 29be 308d aabf 9d19 81bf 6956 c6be
00000070: e966 74bf 151e 49bf e05f 5abf 7c91 33bf
00000080: 3aba 02bf 7c71 63bf 74ef eebe 1f28 42bf
00000090: 6632 97bf 2b27 50bf 6bb2 c1be 66c3 3abf
000000a0: fdfc 30bf 719c 62bf f76f 3dbf c72c 0abf
000000b0: 8b37 4cbf b43d c6be 81a5 d2be c977 e93e
000000c0: e1a3 79be 5b9a 03bf 5b37 2fbf 725f 31bf
000000d0: 6a3a 49bd c689 28bf 338f 1cbf 7c28 03bf
000000e0: 1576 33bf b5b0 25bf 1c58 1bbf 9550 debe
000000f0: 8d2a 25bf 6fb8 2dbf 439a 2cbf b8f7 f3be
00000100: 540e f0be dd4b adbf 99d7 afbd b1d9 4abf
00000110: 8f41 e7be 71f1 5cbf 9b17 0dbf 6220 1cbf
00000120: b779 08bf 96b6 2dbf 2d73 72be e025 8bbf
00000130: f50e d8be 1473 28bf f9c3 54bf cae7 72bf
00000140: caaa dabf 3d90 25bf 84ae 35bf ece1 23bf
00000150: 93b0 a8bf 4c09 4abf 6af6 b6bf 18f0 2cbd
00000160: 905f c9bd bf0b abbe 1580 63bf 39a9 1cbf
00000170: 01ca 99bf 7ad7 4abf e7a3 50be f631 39bf
00000180: b476 32bf 2070 68be e1cd 45be da4a 7fbf
00000190: 40a3 8fbe 4da1 04bf b493 9e3e 8a36 81bf
000001a0: ee9b 49bf f5cf c8be c524 7dbf dab9 75bd
000001b0: 088a a4be 1a46 edbe d685 18bf 2c8d 72bf
000001c0: 10ef 6cbe 7353 c5bf 8c58 e3be f0e0 97bf
000001d0: a698 20bf 1111 e0bd ac53 72bf 0f58 d73e
000001e0: d9c4 03bf d725 0bbf 55a7 93bf b1dd 50be
000001f0: 8757 5fbf 4cff f1bd 945c 8abf b79a 8cbf
00000200: d42c f5be be59 5ebf 0bbe 6dbf 59b2 02bf
00000210: 1bb7 b33e 6960 6cbd 3d57 33bf 8f0c 15bf
00000220: 9625 4cbf c122 21bf 6bdd 74bf 4488 1ebf
00000230: 797f 44bf 3c22 a4bf 3628 12bf 16c1 7a3d
00000240: eb55 80bc 9c55 40bf c2db 8dbf 2fd5 96be
00000250: bd54 7f3d 0ada c5bd 32c3 02bf 2fd5 bfbf
00000260: a8a5 ccbe 4afc dfbd 838b 9e3e 5377 51be
00000270: c3aa 88bf f1b4 21bf 6ccc b6bf 951b e0be
00000280: 7dab 893d 7727 64be a02d 213e f8be e4bd
00000290: ffe1 093d 6513 8d3d 04d4 7dbe 1853 2d3e
000002a0: 15bd 123e 6e89 9f3e 02f8 fc3d 2312 8dbe
000002b0: 5b50 5cbe 01f7 b3bc 61cd 02be 1141 333d
000002c0: 5d54 15bb 9cdb 823d 1829 103f 4913 f93e
000002d0: ed5c ad3d 3894 dcbd 8fc7 823e 410d 54bd
000002e0: 7281 81be fdaf 1e3e b1ad 973d 189e 943e
000002f0: ad88 afbd d387 c2bc 1dcd 7b3e 738a d4bd
00000300: 2054 3b3d 5918 a43d 0a24 193e 9b51 22bd
00000310: 6846 a13c a6ae b13e f991 44be dc27 2bbe
00000320: 8e1e 10be 359e 6fbe 6406 53be a1a1 14bd
00000330: 87f8 533e 150a 083e 5ecc debc 043e b4be
00000340: 492b e4bd b6b6 8c3d d4d0 d2bd 1be1 f3bd
00000350: 1d6e a1be bf24 1f3e e1f3 90be dc31 89ba
00000360: d321 13bd 16a7 a1bd 918c 83be 5f64 78be
00000370: 1f98 25be 7732 403a 8ba6 1bbe 8506 d5bd
00000380: 43a4 1abe 4d67 c1be d3bc 72be 4a8b 90be
00000390: 1499 6bbe b6f4 babe d169 81bc c513 963d
000003a0: 74f0 083e cede f5bd c40c 57bd db52 c63e
000003b0: ecd4 68be ff4d 08bc e66b 533e 8b56 ca3d
000003c0: 9017 e1be d6ad e9be a5e0 08bf 4ae7 19bf
000003d0: 46d4 19bf ebf7 bfbe 715d 11bf b57a 1fbf
000003e0: 75fe 3abf 9af4 18bf ccb5 e7be 78a6 f4be
000003f0: 66f8 10bf 8512 3ebf 0915 dabe 6d0b f1be

bias_hh_l0 f4 [320]
-0.20934512 -0.75045425 -0.97829306 -0.5226808 -0.39724243 -0.6368012 -0.7563486 -0.6505357
-0.4768053 -0.26776442 -0.5380022 -0.6266508 -0.6441135 -0.6877852 -0.90454054 -0.5567688
-0.7125317 -0.6150982 -0.980815 -0.5740252 -0.546628 -0.59861463 -0.9165744 -0.7508502
-0.2134767 -1.3155042 -1.0285044 -0.26457453 -1.0358489 -0.7876059 -0.91056687 -0.64728343
-0.4103619 -0.8341418 -0.4534623 -0.7667447 -0.9688295 -0.69587797 -0.4754979 -0.7845324
-0.6044369 -0.8557471 -0.8545426 -0.6754686 -0.78654116 -0.23785125 -0.26564655 0.4310508
-0.115506396 -0.38377744 -0.7235952 -0.67521787 -0.09154479 -0.5940792 -0.6063324 -0.47868538
-0.5518088 -0.5874045 -0.6959466 -0.4502822 -0.6597082 -0.5144216 -0.6140834 -0.43800044
-0.5407102 -1.3782302 -0.15168288 -0.61758316 -0.40452272 -0.7808498 -0.6985408 -0.5799755
-0.49560276 -0.7856394 -0.4179185 -1.2085264 -0.526203 -0.61449444 -0.97650504 -1.0081695
-1.6228338 -0.6415496 -0.6818775 -0.6284849 -1.1123668 -0.79995996 -1.4297783 0.059556868
-0.07835719 -0.4523144 -0.99520665 -0.5474845 -1.1299975 -0.852172 -0.18194662 -0.75030845
-0.69704753 -0.07889805 -0.16003177 -1.0939674 -0.48489887 -0.5710793 0.25998604 -1.1052996
-0.942422 -0.3994617 -1.0424489 -0.053487428 -0.23894691 -0.40791273 -0.51819354 -0.8214547
-0.2631515 -1.4973861 -0.50920975 -1.2388101 -0.6516109 -0.11180793 -0.95009255 0.4134798
-0.5727605 -0.44438747 -1.1527376 -0.2795225 -0.9932658 -0.18283889 -1.1263442 -1.2042527
-0.5881356 -0.8847024 -0.8057206 -0.4603113 0.30712166 0.02992185 -0.58162224 -0.4145361
-0.73867065 -0.48307127 -0.9677979 -0.7322589 -0.72879267 -1.2281611 -0.6100651 0.06475824
-0.081819914 -0.77687675 -1.2698892 -0.28330877 0.07938923 -0.116488405 -0.6655014 -1.3720663
-0.4552836 -0.26090103 0.2366126 -0.18208471 -0.9939581 -0.71371317 -1.5056404 -0.51515394
0.2675411 -0.23836587 0.28556684 -0.021049347 0.02530494 0.09152408 -0.22553967 0.1228362
0.32180226 0.3487006 -0.020280963 -0.2372284 -0.16957578 -0.043254796 -0.09671294 -0.11848226
-0.04485242 0.09974352 0.43400288 0.4681074 0.06320924 -0.13296779 0.10056919 0.07086295
-0.29799646 0.13251083 0.17498086 0.1028786 0.036435965 0.08895104 0.29524282 -0.09981241
-0.006810972 0.11147929 0.14684935 -0.041530434 0.028264942 0.3660648 -0.23156042 -0.1604447
-0.12353007 -0.13370273 -0.20311652 -0.012603984 0.21480155 0.11355529 -0.03841487 -0.17214221
-0.0102572255 0.26946056 -0.020270834 0.046736397 -0.25091535 0.12293089 -0.26360658 0.14825323
0.050160978 -0.07325243 -0.28934488 -0.173248 -0.17684145 -0.018939577 -0.029292345 -0.003897304
-0.117877096 -0.4045001 -0.17843583 -0.30018374 -0.26189056 -0.30427933 -0.06416177 0.020427119
0.06697724 -0.24424204 -0.16953121 0.369237 -0.2782551 -0.08416912 0.15848732 0.072295375
-0.3596673 -0.5984364 -0.5719428 -0.4905891 -0.5984864 -0.52309 -0.54882306 -0.705952
-0.655369 -0.4425684 -0.3645085 -0.5673311 -0.6656826 -0.7236136 -0.33757204 -0.32543015
00000000: 915e 56be c51d 40bf 6a71 7abf 69ce 05bf
00000010: 5c63 cbbe 6705 23bf 10a0 41bf 8289 26bf
00000020: d31f f4be 6b18 89be 83ba 09bf 306c 20bf
00000030: 9fe4 24bf b112 30bf f88f 67bf 6688 0ebf
00000040: 7a68 36bf 1377 1dbf b116 7bbf 51f3 12bf
00000050: d0ef 0bbf cf3e 19bf 9fa4 6abf b837 40bf
00000060: a399 5abe 7162 a8bf 08a6 83bf 5076 87be
00000070: b296 84bf 8aa0 49bf e91a 69bf 5eb4 25bf
00000080: f41a d2be 518a 55bf 362c e8be 6149 44bf
00000090: 3605 78bf 0f25 32bf 7674 f3be 1ed7 48bf
000000a0: 60bc 1abf 3e12 5bbf 4ec3 5abf 83eb 2cbf
000000b0: c35a 49bf 478f 73be d302 88be b1b2 dc3e
000000c0: 9e8e ecbd 7a7e c4be 893d 39bf 14db 2cbf
000000d0: d67b bbbd 9315 18bf 9a38 1bbf 4016 f5be
000000e0: 5743 0dbf 2460 16bf 8e29 32bf 638b e6be
000000f0: a3e2 28bf 22b1 03bf 9234 1dbf 9841 e0be
00000100: fc6b 0abf d969 b0bf c252 1bbe ee19 1ebf
00000110: 9a1d cfbe c6e5 47bf 92d3 32bf 4679 14bf
00000120: a5bf fdbe aa1f 49bf 6af9 d5be feb0 9abf
00000130: 3db5 06bf 824f 1dbf 3cfc 79bf b30b 81bf
00000140: 05b9 cfbf 983c 24bf 868f 2ebf 63e4 20bf
00000150: 0962 8ebf 2dca 4cbf fa02 b7bf e7f1 733d
00000160: bc79 a0bd c195 e7be ddc5 7ebf f227 0cbf
00000170: c2a3 90bf f227 5abf 3750 3abe 3714 40bf
00000180: b571 32bf 4d95 a1bd 5edf 23be 2007 8cbf
00000190: aa44 f8be 4132 12bf e41c 853e 757a 8dbf
000001a0: 9142 71bf 3e86 ccbe f76e 85bf a215 5bbd
000001b0: 80ae 74be f0d9 d0be 55a8 04bf db4a 52bf
000001c0: cbbb 86be 59aa bfbf 925b 02bf 5491 9ebf
000001d0: f9cf 26bf 8efb e4bd 4439 73bf a0b3 d33e
000001e0: 6fa0 12bf c186 e3be e88c 93bf 931d 8fbe
000001f0: ab46 7ebf 1e3a 3bbe 0c2c 90bf f424 9abf
00000200: 0e90 16bf db7b 62bf b543 4ebf ecad ebbe
00000210: 0d3f 9d3e ab1e f53c 32e5 14bf 133e d4be
00000220: 8519 3dbf 1e55 f7be 9ac1 77bf 5275 3bbf
00000230: 2892 3abf 6234 9dbf 3a2d 1cbf f89f 843d
00000240: 3391 a7bd 65e1 46bf bb8b a2bf d90d 91be
00000250: d296 a23d 7991 eebd 4d5e 2abf de9f afbf
00000260: ef1a e9be d294 85be 934a 723e 6a74 3abe
00000270: 0a74 7ebf e8b5 36bf d3b8 c0bf 21e1 03bf
00000280: 26fb 883e 2f16 74be d135 923e ae6f acbc
00000290: 4e4c cf3c fa70 bb3d dff3 66be 8c91 fb3d
000002a0: 44c3 a43e e388 b23e 4324 a6bc 00ec 72be
000002b0: 46a5 2dbe f12b 31bd 6f11 c6bd d4a6 f2bd
000002c0: 2cb7 37bd 5546 cc3d a035 de3e c6ab ef3e
000002d0: d973 813d b528 08be 38f7 cd3d 9820 913d
000002e0: fe92 98be ebb0 073e 2f2e 333e 04b2 d23d
000002f0: e13d 153d f62b b63d 112a 973e 736a ccbd
00000300: 932e dfbb 414f e43d ad5f 163e d11b 2abd
00000310: e18b e73c d86c bb3e 2d1e 6dbe 9e4b 24be
00000320: 55fd fcbd 5ee9 08be c7fd 4fbe f180 4ebc
00000330: f0f4 5b3e ad8f e83d e958 1dbd 0c46 30be
00000340: ec0d 28bc bcf6 893e 050f a6bc aa6e 3f3d
00000350: fa77 80be 31c3 fb3d 71f7 86be b2cf 173e
00000360: 9975 4d3d 5f05 96bd 0325 94be ec67 31be
00000370: ed15 35be 2c27 9bbc 80f6 efbc e969 7fbb
00000380: 8c69 f1bd a31a cfbe e2b7 36be afb1 99be
00000390: 8516 86be 80ca 9bbe 3f67 83bd c656 a73c
000003a0: 5d2b 893d 961a 7abe 9799 2dbe a20c bd3e
000003b0: 7477 8ebe dc60 acbd 804a 223e 990f 943d
000003c0: 5026 b8be 2133 19bf d86a 12bf 7f2e fbbe
000003d0: 6836 19bf 3ae9 05bf ab7f 0cbf 45b9 34bf
000003e0: 43c6 27bf 5398 e2be dca0 babe 9c3c 11bf
000003f0: 2d6a 2abf be3e 39bf 3ed6 acbe c89e a6be

weight_ih_l1 f4 [320, 80]
-0.012524124 0.45255965 0.39566392 -0.25569785 -0.26577774 0.6640163 0.27623844 -0.7765539
0.34575233 0.2954979 -0.22936356 -0.06996682 1.4262408 -0.21185203 -0.45749986 -0.48004198
-0.6286416 0.223094 -0.44904914 0.14542128 -0.28330424 -0.22608341 -0.048596725 0.25826958
-0.921244 -1.1482433 -0.3901703 -0.026727233 -0.79399025 0.8926148 0.23487566 0.1633595
-0.2994151 -0.8502447 -0.9590953 0.32384476 -0.4733449 -0.013503284 -0.75701994 0.07077078
-0.56902695 0.5069525 -0.5039289 0.18907352 0.68470263 0.10328845 -0.16510092 -0.430575
-0.39239532 0.1637792 0.031206023 -0.22911537 -0.54154277 -0.81977105 -0.56284505 -0.9435022
-0.03320428 0.10350023 0.23677503 -0.20258452 1.0958463 0.4775795 0.20500861 0.5608192
-0.6274559 0.08780557 -0.46880513 -0.123881586 0.75365 -0.37906954 0.677007 -0.60134345
-0.630865 0.8562231 -1.1837747 -0.11645544 -0.65730315 -0.83952016 -0.6015592 0.09882053
-0.21100241 0.98766327 0.7256276 -0.078531526 -0.23765622 -0.5757509 -1.9405354 -0.48203528
-0.027958551 -0.64079285 0.08605145 -1.0762385 0.014853255 0.035077456 -0.22381362 0.5842244
-0.19277588 -2.0890398 -0.37190744 -0.37076825 0.2548024 0.5010009 1.7206124 -0.24550161
-1.1895525 0.17501411 -0.24664232 0.2171123 0.3632598 0.68020505 1.5064057 0.96767914
-0.02084977 0.02537081 -0.4864071 -1.0057657 -0.4679275 0.69121426 0.40463075 -1.4164346
-0.6453494 -0.58166033 -0.83927536 -0.08239153 -0.7441734 1.2153339 0.33418664 -0.25052628
0.07314665 -0.4774656 -0.77680695 -0.49815172 0.9975507 -0.14138588 0.010781798 -0.6601915
0.7768398 -1.7591554 -0.25903124 -0.43444943 0.27538785 0.33642063 0.09151503 -0.08757332
-1.1452905 -0.5793712 -1.2030003 -0.08448586 0.51404375 -0.43379772 0.4134512 0.50646895
-0.4556679 -1.0410963 0.20025101 0.21488918 -0.0670254 0.56613034 -1.0573965 -0.09746158
0.6519202 0.2797853 -0.3808049 -0.063339576 -0.2714581 1.6652797 0.04344094 -1.0459331
-0.06406206 0.01768616 0.516182 0.2664308 -0.4942476 0.13305418 0.24127959 0.7122895
-0.07864889 -0.050126888 -1.2827537 -0.1456288 -0.22302459 -0.29572397 -0.20693916 0.7084829
-0.10215272 -1.2626284 0.10266636 0.2620763 0.38945395 -0.43105865 -0.6489061 0.67753565
-0.11236688 0.5404235 -0.6352917 -0.35076252 0.4521895 -0.34295988 -0.78525114 0.8639676
0.24079326 0.19693586 0.03272135 0.33015415 -0.118487336 0.48815653 0.20801689 -0.37619632
0.78581256 -0.32052055 -0.3224739 0.50966746 -0.872383 0.56019515 0.44208047 -0.21054599
-0.5196244 1.3683773 -0.22910069 0.122845836 0.47736958 0.7369943 -0.090538345 -0.10255381
0.8830875 -0.05992642 -1.0339577 0.28707063 -0.26339602 0.49063805 1.0175767 0.37428865
0.31966928 0.62476087 0.29795888 -0.04294636 0.95544827 -0.20616695 0.1464594 -0.84478563
0.1560827 1.7699847 -1.5965875 -1.7535897 -0.9815669 1.6524179 1.8385384 -0.770306
1.3056524 0.21316317 0.5382439 0.43055558 -1.1874306 0.92442864 0.30590883 -0.36643618
00000000: fc31 4dbc e6b5 e73e 7694 ca3e d4ea 82be
00000010: 0514 88be f9fc 293f 206f 8d3e 3dcc 46bf
00000020: 7306 b13e 804b 973e 48de 6abe c44a 8fbd
00000030: 0f8f b63f bdef 58be 6c3d eabe 10c8 f5be
00000040: a8ee 20bf c172 643e c5e9 e5be 51e9 143e
00000050: 410d 91be 6982 67be 5c0d 47bd e93b 843e
00000060: a6d6 6bbf a3f9 92bf 67c4 c7be 12f3 dabc
00000070: f242 4bbf 6782 643f 3f83 703e b647 273e
00000080: f04c 99be a3a9 59bf 4587 75bf fbce a53e
00000090: 435a f2be e13c 5dbc 0fcc 41bf 45f0 903d
000000a0: c0ab 11bf a4c7 013f 7c01 01bf 7d9c 413e
000000b0: ac48 2f3f e588 d33d 3710 29be 5474 dcbe
000000c0: 0ae8 c8be bcb5 273e c6a3 ff3c 389d 6abe
000000d0: 8ca2 0abf 84dc 51bf 9d16 10bf 5c89 71bf
000000e0: 3601 08bd eef7 d33d 2775 723e 5172 4fbe
000000f0: b144 8c3f 4d85 f43e c7ed 513e d991 0f3f
00000100: f3a0 20bf 68d3 b33d 3a07 f0be a1b5 fdbd
00000110: 35ef 403f 6715 c2be 5550 2d3f a5f1 19bf
00000120: 5e80 21bf 7031 5b3f ee85 97bf 3180 eebd
00000130: 0545 28bf cbea 56bf c9ff 19bf 6b62 ca3d
00000140: 0411 58be 80d7 7c3f bbc2 393f 23d5 a0bd
00000150: 275c 73be 6964 13bf 7763 f8bf 54cd f6be
00000160: 5509 e5bc 000b 24bf be3b b03d 2fc2 89bf
00000170: 115b 733c 61ad 0f3d 662f 65be bb8f 153f
00000180: 0a67 45be d4b2 05c0 a76a bebe 56d5 bdbe
00000190: 7675 823e 9841 003f 073d dc3f c664 7bbe
000001a0: 4243 98bf e636 333e ce8f 7cbe b052 5e3e
000001b0: 30fd b93e eb21 2e3f e7d1 c03f d2b9 773f
000001c0: 23cd aabc 72d6 cf3c 5a0a f9be eebc 80bf
000001d0: 3194 efbe 6bf3 303f c32b cf3e bb4d b5bf
000001e0: 9e35 25bf b1e7 14bf c0da 56bf e4bc a8bd
000001f0: 2682 3ebf 1090 9b3f 831a ab3e fb44 80be
00000200: e9cd 953d 5f76 f4be d2dc 46bf be0d ffbe
00000210: 7c5f 7f3f 76c7 10be 23a6 303c 4f02 29bf
00000220: f9de 463f 012c e1bf be9f 84be 2870 debe
00000230: a3ff 8c3e 533f ac3e 3b6c bb3d a459 b3bd
00000240: e198 92bf ac51 14bf eafb 99bf ec06 adbd
00000250: 5f98 033f bc1a debe e0af d33e f3a7 013f
00000260: 4e4d e9be a542 85bf 9a0e 4d3e e90b 5c3e
00000270: 9d44 89bd ebed 103f c558 87bf f099 c7bd
00000280: 3ee4 263f 0540 8f3e dcf8 c2be 2eb8 81bd
00000290: 8efc 8abe e327 d53f 21ef 313d 23e1 85bf
000002a0: f832 83bd 91e2 903c 8124 043f 9e69 883e
000002b0: 050e fdbe 5b3f 083e ff11 773e 9b58 363f
000002c0: ab12 a1bd da51 4dbd 4631 a4bf b71f 15be
000002d0: 8f60 64be 2269 97be dce7 53be 235f 353f
000002e0: 7235 d1bd cf9d a1bf be42 d23d dd2e 863e
000002f0: 8266 c73e b8b3 dcbe b61e 26bf fa72 2d3f
00000300: 9b20 e6bd 3259 0a3f 7aa2 22bf 2597 b3be
00000310: 6285 e73e 7098 afbe 3806 49bf fb2c 5d3f
00000320: 8292 763e 8ea9 493e d306 063d f709 a93e
00000330: 7da9 f2bd a7ef f93e 6102 553e ce9c c0be
00000340: 032b 493f 451b a4be 4d1b a5be 9179 023f
00000350: 7e54 5fbf f368 0f3f 5f58 e23e 5e99 57be
00000360: 1b06 05bf fd26 af3f 5f99 6abe 9996 fb3d
00000370: c969 f43e a9ab 3c3f 2b6c b9bd bb07 d2bd
00000380: 0612 623f 6875 75bd ba58 84bf ecfa 923e
00000390: d8db 86be e934 fb3e f43f 823f c3a2 bf3e
000003a0: b1ab a33e 54f0 1f3f 118e 983e 86e8 2fbd
000003b0: 4298 743f 6e1d 53be 74f9 153e df43 58bf
000003c0: 25d4 1f3e dc8e e23f fb5c ccbf a175 e0bf
000003d0: f847 7bbf 6e82 d33f 3a55 eb3f c632 45bf
000003e0: 9e1f a73f 7247 5a3e 5aca 093f c871 dc3e
000003f0: bafd 97bf 5ba7 6c3f 15a0 9c3e 869d bbbe

weight_hh_l1 f4 [320, 80]
-0.9074634 -0.1629352 -0.3554633 -1.2493217 -0.77405775 -1.2659338 0.40754467 -0.36843637
0.37478763 -0.23826599 -0.30763587 -0.4153163 -0.6095345 -0.8262672 -0.35063127 0.11758537
-0.78276306 -0.4493101 -0.378331 0.25679827 -0.9563249 1.0059143 0.33082956 -1.1500591
-1.1565127 -0.34236735 1.811914 0.7630615 0.2904803 0.23656186 -0.81129295 -0.7107389
0.06972714 -0.12570915 -0.5272999 0.21362072 0.43555218 -0.08618884 -0.54626966 -0.7788244
-0.9770345 0.8349068 -0.06176192 0.8890629 0.95134205 0.94747776 -1.5398875 0.63192403
-1.0127136 0.09296115 0.3081838 -0.36088464 -0.6131817 -0.14496009 -0.50944036 -0.16808073
-0.35352495 0.6466394 0.91090626 0.4704407 0.91034484 0.594269 0.37965822 -0.5689487
0.06984666 -0.14978555 -0.7030228 -0.6583991 0.68485177 1.3109264 1.4287654 0.072326526
0.36401644 0.5157934 0.013495948 -0.05151749 0.57908064 0.5647959 -0.46186545 -0.23553018
0.30633903 0.49447024 0.050401546 0.84539855 0.09970311 0.012320132 0.09082223 0.46544057
0.06586255 -0.21347511 -0.0047549675 1.748111 -0.18226905 0.115380526 0.37822923 0.3577952
0.78043425 0.45113084 1.0352774 0.06069406 0.074379474 -0.33029222 0.53883374 0.010169586
0.31369063 -1.5452138 -0.40230995 0.14612666 0.18306363 -0.45372304 0.8664634 -0.5487406
0.3752031 -1.5494864 0.097281545 -0.5434599 -0.039544072 -0.22960585 0.124367274 0.45737606
-0.10467746 0.27578664 0.23493469 -0.00029474733 -0.25518048 0.110473774 0.20341706 -0.025473949
-0.2040891 -0.46773982 -0.8411456 1.0997056 -0.3439475 1.1376499 0.28403765 -0.85902333
0.076450326 -0.18850085 -0.2136388 0.39092073 -0.38368666 -0.50165844 0.54094803 0.7666768
0.062282797 0.006316488 0.3510832 -0.008437192 -0.2015 -0.5405473 -0.06588503 0.2374734
0.22281432 0.24277811 0.48564386 0.06587196 -0.10348986 -0.44903758 -0.65698755 -0.2314758
0.24427967 -0.4357179 -0.38202414 0.30687612 0.42564026 0.31524017 0.562705 -0.38522205
-0.5142 0.2773341 0.5668275 -0.18402806 -0.031048317 0.17834677 0.264007 0.55711037
-0.1281549 0.4409577 -0.47512975 -0.06091275 -0.54027694 -1.0537949 -0.894653 0.64264804
-0.7479949 -0.3410509 -0.4136163 0.08654008 0.05743237 0.53454614 0.2065942 0.1680613
1.2366359 0.67816645 -0.41951275 0.70377755 0.35899413 -0.15189373 0.6457433 -0.8491804
0.24030048 -1.2037264 0.20663744 0.066186816 -0.005087247 0.4145301 1.1478652 -0.7035623
-0.17306174 -0.56565833 0.6445056 -0.02247802 0.8859366 -0.6716287 0.2768586 -1.3030664
-0.10098227 -0.31210464 -0.023641555 -0.15402426 0.4859621 -0.28994787 0.14193594 -0.5261689
0.35549036 0.18851179 0.7738441 0.5049014 -0.6992633 -0.4451884 -0.60473955 0.19660717
-0.20147263 -0.81161827 0.030200755 0.577638 0.8378377 -0.5462882 -0.15737431 0.74535143
-0.12218535 -0.1750112 -1.2484673 -1.4345052 -0.25472608 -0.5826766 0.57180715 0.16312069
0.6425451 -0.37849638 -2.069426 -0.8249622 -0.48949185 -1.1025256 0.7442653 0.4338843
00000000: 854f 68bf 7cd8 26be 49ff b5be c6e9 9fbf
00000010: a628 46bf 1e0a a2bf b2a9 d03e b1a3 bcbe
00000020: 2ae4 bf3e 00fc 73be 7382 9dbe 57a4 d4be
00000030: 740a 1cbf 3f86 53bf f185 b3be 99d0 f03d
00000040: 2963 48bf f90b e6be 9ab4 c1be 107b 833e
00000050: b5d1 74bf cdc1 803f 7e62 a93e 2335 93bf
00000060: 9c08 94bf c64a afbe ccec e73f 0058 433f
00000070: d5b9 943e 463d 723e e5b0 4fbf fcf2 35bf
00000080: 1acd 8e3d e6b9 00be 20fd 06bf 64bf 5a3e
00000090: b200 df3e c683 b0bd 54d8 0bbf 0961 47bf
000000a0: ef1e 7abf 74bc 553f 11fa 7cbd a099 633f
000000b0: 278b 733f e78d 723f 091b c5bf c6c5 213f
000000c0: 99a0 81bf 6a62 be3d 44ca 9d3e dfc5 b8be
000000d0: 7af9 1cbf 6b70 14be af6a 02bf 5b1d 2cbe
000000e0: 3901 b5be 298a 253f 2731 693f 9add f03e
000000f0: 5c0c 693f 0322 183f 9062 c23e 9fa6 11bf
00000100: c40b 8f3d 6261 19be 4df9 33bf d88c 28bf
00000110: 7252 2f3f 70cc a73f c9e1 b63f ee1f 943d
00000120: 5d60 ba3e 090b 043f 1c1e 5d3c 0104 53bd
00000130: a13e 143f 7796 103f a179 ecbe d32e 71be
00000140: 78d8 9c3e 342b fd3e da71 4e3d 0a6c 583f
00000150: 2531 cc3d 61da 493c 0101 ba3d 3a4e ee3e
00000160: f2e2 863d 3899 5abe 8fcf 9bbb 1ac2 df3f
00000170: bda4 3abe a04c ec3d 43a7 c13e ef30 b73e
00000180: 8aca 473f 9ffa e63e f883 843f 569a 783d
00000190: 4454 983d 101c a9be 02f1 093f 569e 263c
000001a0: 0f9c a03e 91c9 c5bf 92fb cdbe 3aa2 153e
000001b0: 0875 3b3e 634e e8be 8cd0 5d3f 447a 0cbf
000001c0: 9f1a c03e 9255 c6bf 8c3b c73d 3020 0bbf
000001d0: f7f8 21bd cc1d 6bbe 45b4 fe3d 322d ea3e
000001e0: 2361 d6bd e833 8d3e b892 703e 5188 9ab9
000001f0: 04a7 82be 1340 e23d 904c 503e beae d0bc
00000200: bcfc 50be 987b efbe 5155 57bf 27c3 8c3f
00000210: e319 b0be 839e 913f 626d 913e f4e8 5bbf
00000220: fd91 9c3d 5e06 41be 21c4 5abe c326 c83e
00000230: 9472 c4be b06c 00bf 927b 0a3f ee44 443f
00000240: 3f1c 7f3d 8bfa ce3b 2dc1 b33e 263c 0abc
00000250: 0456 4ebe 4f61 0abf bbee 86bd 3a2c 733e
00000260: 7029 643e d39a 783e 50a6 f83e e1e7 863d
00000270: 7ef2 d3bd 41e8 e5be 5630 28bf fe07 6dbe
00000280: 7324 7a3e 6b16 dfbe ab98 c3be de1e 9d3e
00000290: 85ed d93e 2967 a13e 6f0d 103f d33b c5be
000002a0: 9ca2 03bf bcfe 8d3e 9b1b 113f da71 3cbe
000002b0: 0a59 febc 89a0 363e ed2b 873e c99e 0e3f
000002c0: 0a3b 03be 35c5 e13e 3544 f3be a67f 79bd
000002d0: 974f 0abf c0e2 86bf fb07 65bf 9584 243f
000002e0: 987c 3fbf 399e aebe 84c5 d3be ed3b b13d
000002f0: 343e 6b3d 04d8 083f 6e8d 533e 4318 2c3e
00000300: 164a 9e3f 519c 2d3f 60ca d6be c42a 343f
00000310: 14ce b73e 088a 1bbe 6f4f 253f e363 59bf
00000320: 5411 763e b513 9abf c498 533e f48c 873d
00000330: ecb2 a6bb 4a3d d43e 3fed 923f a91c 34bf
00000340: 1937 31be fcce 10bf 52fe 243f d323 b8bc
00000350: becc 623f dcef 2bbf 69c0 8d3e e1ca a6bf
00000360: cbcf cebd 2ecc 9fbe efab c1bc 89b8 1dbe
00000370: 06d0 f83e 0c74 94be a857 113e 01b3 06bf
00000380: d502 b63e 3c09 413e a61a 463f 3841 013f
00000390: eb02 33bf bcef e3be 36d0 1abf 6453 493e
000003a0: d74e 4ebe 37c6 4fbf 9367 f73c 15e0 133f
000003b0: 887c 563f 8bd9 0bbf bb26 21be 5acf 3e3f
000003c0: 503c fabd 2336 33be c7cd 9fbf de9d b7bf
000003d0: 756b 82be 4b2a 15bf f461 123f 1c09 273e
000003e0: d67d 243f 47ca c1be 7a71 04c0 b930 53bf
000003f0: ad9e fabe 8f1f 8dbf 2c88 3e3f 1526 de3e

bias_ih_l1 f4 [320]
-0.6920059 -0.25578648 -0.88524765 -0.7137495 -0.67990065 -0.6893837 -1.5979071 -0.80985165
-0.71123356 -0.56665635 -0.87342244 -0.2007155 -0.992674 -0.8226339 -0.5377603 -0.69780266
-0.44991747 -0.75488645 -1.0838095 -0.7612627 -0.5500173 -0.7124589 -0.9593509 -0.97230476
-0.83401495 0.016805405 -1.0466691 -0.8128573 -1.6368237 -0.8387631 -0.9887663 -0.7781842
-0.7848988 -0.6828004 -0.8073556 -1.0605311 -0.80466056 -0.7141901 -0.8885752 -0.9320507
-0.8313697 -1.3525074 -0.9729744 -0.8910985 -0.8382758 0.35954243 -0.9046119 -0.98418766
-0.45469913 -1.0153183 -0.97510767 -0.6105908 -1.0976342 -1.065474 -0.8148407 -0.9426127
-1.0209497 -0.5536126 -0.83777434 -1.1359082 -1.2075472 -0.6044779 -0.6613242 -1.3005947
-0.48956645 -1.271843 -0.9267994 -0.64524513 -0.71508104 -0.6548536 -1.3262318 -0.8608348
-0.44723645 -0.8763206 -1.0191581 -0.7564673 -0.85786486 -1.0769534 -1.2124419 -1.1382365
0.46838817 0.29187244 0.027710674 0.4285962 -0.26090944 -0.27058405 -0.9020657 0.2605277
-0.16108228 0.21543698 0.08743133 0.19094752 -0.9450157 0.15411948 -0.8239828 -0.6217294
0.16531913 -0.19173726 -0.26186842 -0.16814394 -0.28353366 -0.0753444 0.99873054 0.042323876
-0.89539266 0.123902135 -0.35765275 0.31678358 -0.41012296 0.49584123 -0.7442107 -0.8087224
0.13469592 -0.10150606 0.43439057 -0.17766175 0.16133401 -0.5770848 0.3073507 0.14266048
-0.11509316 -0.9874579 0.45441967 -1.1331913 0.47691134 -0.5016085 0.038537335 -0.418589
0.51949424 -1.1584668 -0.97109145 0.1367369 -0.9236384 -0.8246654 -0.6557512 -0.60530764
-0.67116773 -0.22831115 0.039536454 -0.4553649 -0.81138724 -0.32523978 -0.9246082 -0.5515503
-0.52121234 -0.8891106 -0.35553047 -0.1059124 0.11063612 -0.43167025 -0.9178799 -0.2550549
-0.3556102 -0.20246089 -0.07692198 -0.10928056 -0.67177886 -0.32464126 -1.1251401 0.23804924
-0.2797179 -0.05538372 0.05655311 -0.09219565 0.2101875 0.13498141 0.051166236 0.1677309
-0.09283199 -0.02645754 0.13864733 -0.07819967 0.21142493 0.11466311 0.0061239377 -0.5873923
0.015757358 -0.15151581 0.08565978 0.33568153 0.19363499 -0.04692875 -0.047572892 0.15638712
-0.044160303 0.44952002 0.18351129 -0.23414606 0.2027079 -0.30725443 0.13151401 0.05996434
-0.12842968 -0.14723188 0.3125236 0.19747083 -0.093853764 -0.07209637 -0.077547565 0.1389673
0.17745982 -0.045116212 0.0024752726 -0.079517566 0.15571116 -0.07692572 0.078102805 -0.25166267
0.24906152 0.023766361 0.24956796 -0.40853915 0.18529688 -0.46959877 -0.043548014 0.33257917
0.006487963 -0.04344802 0.02429518 0.09318028 -0.29236495 -0.080484204 -0.24462585 0.3633034
-0.13969168 -0.09236714 0.32464647 -0.1940052 -0.058330044 0.039393842 0.07713054 0.09144299
0.07332927 -0.1123931 -0.06689653 -0.0009414126 -0.04420251 0.17088395 0.33763158 0.048538078
-0.60059667 -0.65522873 -1.0073938 0.45353398 -0.3810638 -0.8296158 -0.59339345 -0.1911881
-0.8935295 -0.5809766 -1.0898811 -0.19742146 -1.0627301 -0.57123005 -0.31289068 -0.22579142
00000000: 4c27 31bf 72f6 82be 979f 62bf 4ab8 36bf
00000010: f80d 2ebf 737b 30bf 3888 ccbf 7052 4fbf
00000020: 6713 36bf 6410 11bf 9d98 5fbf 5d88 4dbe
00000030: e21f 7ebf 2398 52bf a9aa 09bf 32a3 32bf
00000040: 955b e6be 3d40 41bf 45ba 8abf 1de2 42bf
00000050: efcd 0cbf b563 36bf 0598 75bf f7e8 78bf
00000060: 0182 55bf 7dab 893c 41f9 85bf 6a17 50bf
00000070: 7083 d1bf 2eb9 56bf ca1f 7dbf 1437 47bf
00000080: 21ef 48bf 02cc 2ebf dbae 4ebf 7cbf 87bf
00000090: 3cfe 4dbf 2ad5 36bf aa79 63bf e09a 6ebf
000000a0: a5d4 54bf f61e adbf da14 79bf 081f 64bf
000000b0: 3e99 56bf f215 b83e a594 67bf b9f3 7bbf
000000c0: 53ce e8be f3f5 81bf a8a0 79bf ae4f 1cbf
000000d0: 477f 8cbf 7461 88bf 6699 50bf 114f 71bf
000000e0: 7bae 82bf 8eb9 0dbf 6178 56bf 7165 91bf
000000f0: e890 9abf 10bf 1abf 8b4c 29bf e379 a6bf
00000100: 74a8 fabe c0cb a2bf ba42 6dbf c92e 25bf
00000110: 8d0f 37bf 7ca4 27bf f7c1 a9bf ab5f 5cbf
00000120: 2dfc e4be 8c56 60bf c673 82bf d7a7 41bf
00000130: 089d 5bbf 9cd9 89bf 4c31 9bbf bcb1 91bf
00000140: 93d0 ef3e 4e70 953e 7f01 e33c f670 db3e
00000150: ec95 85be fe89 8abe c7ed 66bf e363 853e
00000160: c1f2 24be 839b 5c3e 320f b33d bf87 433e
00000170: 8dec 71bf 7fd1 1d3e 89f0 52bf a829 1fbf
00000180: 6b49 293e c656 44be 9e13 86be ed2d 2cbe
00000190: 532b 91be 2a4e 9abd ceac 7f3f cd5b 2d3d
000001a0: 7438 65bf 67c0 fd3d 431e b7be 7531 a23e
000001b0: a3fb d1be e7de fd3e 9884 3ebf 6e08 4fbf
000001c0: baed 093e 69e2 cfbd 7168 de3e f6ec 35be
000001d0: be34 253e d4bb 13bf 125d 9d3e 9715 123e
000001e0: f6b5 ebbd 0aca 7cbf b2a9 e83e 6a0c 91bf
000001f0: b92d f43e 6a69 00bf 53d9 1d3d 4c51 d6be
00000200: 93fd 043f a448 94bf 7399 78bf c204 0c3e
00000210: 9173 6cbf 461d 53bf 50df 27bf 71f5 1abf
00000220: a6d1 2bbf 66ca 69be faf0 213d 9725 e9be
00000230: 13b7 4fbf d485 a6be 1fb3 6cbf 6732 0dbf
00000240: 2c6e 05bf c19c 63bf 1708 b6be 9ae8 d8bd
00000250: 3195 e23d e203 ddbe 2dfa 6abf 8e96 82be
00000260: 8a12 b6be e851 4fbe 4589 9dbd 7cce dfbd
00000270: b3f9 2bbf 6137 a6be 9704 90bf 2ec3 733e
00000280: 2f37 8fbe 0ada 62bd 3ca4 673d 13d1 bcbd
00000290: 643b 573e 9138 0a3e b093 513d a6c1 2b3e
000002a0: b31e bebd 7cbd d8bc 91f9 0d3e 2627 a0bd
000002b0: c77f 583e 7ed4 ea3d 50ab c83b 575f 16bf
000002c0: 9315 813c f626 1bbe 656e af3d 73de ab3e
000002d0: 4048 463e 5c38 40bd cbdb 42bd f223 203e
000002e0: 6fe1 34bd 7d27 e63e 62ea 3b3e fcc3 6fbe
000002f0: a992 4f3e 7450 9dbe 9cab 063e 2b9d 753d
00000300: 1283 03be f4c3 16be 1803 a03e cb35 4a3e
00000310: 6736 c0bd 43a7 93bd 42d1 9ebd 724d 0e3e
00000320: 07b8 353e c7cb 38bd 2f38 223b 1bda a2bd
00000330: bf72 1f3e 3b8b 9dbd 5df4 9f3d eed9 80be
00000340: fc09 7f3e acb1 c23c be8e 7f3e 0b2c d1be
00000350: 77be 3d3e 406f f0be 675f 32bd d147 aa3e
00000360: fa98 d43b 8df6 31bd af06 c73c 4dd5 be3d
00000370: dcb0 95be e7d4 a4bd 337f 7abe e702 ba3e
00000380: 560b 0fbe fc2a bdbd 1038 a63e 4da9 46be
00000390: 7ceb 6ebd 705b 213d 9ef6 9d3d 7646 bb3d
000003a0: a82d 963d 5b2e e6bd 0c01 89bd 21c9 76ba
000003b0: b10d 35bd 34fc 2e3e 0cde ac3e ddcf 463d
000003c0: b4c0 19bf 12bd 27bf 48f2 80bf 9b35 e83e
000003d0: cb1a c3be b361 54bf a2e8 17bf d0c6 43be
000003e0: 59be 64bf e2ba 14bf 3981 8bbf da28 4abe
000003f0: 8a07 88bf 223c 12bf 3533 a0be de35 67be

bias_hh_l1 f4 [320]
-0.7621455 -0.23677139 -0.87568104 -0.6200449 -0.69989604 -0.7915221 -1.5234596 -0.8078756
-0.6706054 -0.5401677 -0.7368611 -0.34099984 -1.0031751 -0.7334007 -0.48177072 -0.75407195
-0.4614556 -0.735141 -1.1336583 -0.7600481 -0.6326329 -0.73279357 -0.95193654 -0.94239694
-0.7569074 0.049915235 -1.108578 -0.8936838 -1.5954292 -0.9209552 -0.8483207 -0.8512655
-0.61950725 -0.7772847 -0.63789964 -0.9067256 -0.7584017 -0.6384282 -0.86847895 -0.8905176
-0.82606876 -1.4371686 -1.0028362 -0.9137423 -0.9497834 0.30126047 -0.8991612 -1.0524324
-0.5666298 -1.0028535 -0.936375 -0.7148968 -1.0319855 -1.0584656 -0.8719733 -0.9595726
-0.8295434 -0.56113696 -0.74554574 -1.1330414 -1.2591605 -0.7848014 -0.744432 -1.1289895
-0.5025015 -1.1060511 -0.85569704 -0.6988193 -0.7947697 -0.6923051 -1.4303194 -1.0458903
-0.3493282 -0.8906623 -0.98281246 -0.6262808 -0.8697343 -0.9802015 -1.1323078 -1.1008613
0.57082176 0.3141551 0.0063283904 0.48929837 -0.13930973 -0.12309743 -0.9756809 0.18481089
-0.2106362 0.16135502 0.1743444 0.35605466 -0.866515 0.13924779 -0.68605256 -0.54779977
0.10722981 -0.1832832 -0.40778843 -0.11588693 -0.29203987 0.037553485 1.0935653 0.01864307
-0.9200863 0.03156364 -0.3566828 0.30937827 -0.6008668 0.43273988 -0.71973914 -0.7355391
0.13950007 -0.026572505 0.22660504 -0.0081286365 0.099175476 -0.519691 0.35685366 -0.0047746426
-0.06634125 -0.94077367 0.5456157 -1.0929747 0.47363067 -0.47477967 -0.017970886 -0.3113412
0.37605974 -0.9777614 -0.94645363 0.23429148 -0.9156273 -0.7736698 -0.5938253 -0.58156854
-0.5961028 -0.32453123 0.041025765 -0.56113064 -0.83836734 -0.21891169 -0.8782605 -0.4080922
-0.4085652 -0.7613477 -0.30167934 -0.047244795 0.098617844 -0.49161246 -0.9824208 -0.17586547
-0.3145388 -0.21745656 -0.10931536 -0.016402133 -0.75017804 -0.3120888 -1.1251533 0.124130294
-0.1469069 -0.02353612 0.20385052 -0.082733825 0.23158994 0.24282046 -0.017914725 0.1686189
-0.00020831356 -0.009194966 0.25786027 -0.2275038 0.15793043 -0.011311945 0.13427044 -0.6279639
0.040709943 -0.15835497 0.12677425 0.4966558 0.26005882 -0.1514043 -0.033525087 0.16385356
-0.07510495 0.33536112 0.04590542 -0.31923848 0.009460102 -0.220804 0.14819394 -0.0044369986
-0.1419626 -0.02145668 0.25409895 0.18718614 0.026643574 -0.0032953438 -0.19487613 0.014469368
0.11155498 -0.1957802 -0.12915441 -0.17168552 0.15783164 -0.14340946 0.05790858 -0.22210619
0.15829341 -0.016167667 0.4043324 -0.48224044 0.08535597 -0.43268982 0.14184047 0.37160715
-0.002112844 -0.10292375 -0.16058886 0.15411255 -0.32527885 -0.09230685 -0.30258077 0.2622855
-0.0037649204 -0.049114574 0.4334196 -0.24875909 -0.113691434 0.15897176 0.071405336 0.028567238
0.077670194 -0.14152968 -0.17385417 0.03550732 0.144271 0.16981947 0.276737 0.036384508
-0.5732318 -0.6564959 -0.8149818 0.3745271 -0.20638892 -0.7848417 -0.46828005 -0.034512505
-0.9255928 -0.4203267 -1.0043331 -0.049964275 -1.154038 -0.7390299 -0.18117832 -0.22525422
00000000: f81b 43bf 3374 72be a22c 60bf 43bb 1ebf
00000010: 632c 33bf 31a1 4abf b900 c3bf efd0 4ebf
00000020: ccac 2bbf 6e48 0abf eea2 3cbf 8897 aebe
00000030: 0b68 80bf 26c0 3bbf a7aa f6be dc0a 41bf
00000040: e943 ecbe 3332 3cbf b71b 91bf 8392 42bf
00000050: 3bf4 21bf 5c98 3bbf 1db2 73bf ed40 71bf
00000060: afc4 41bf eb73 4c3d e2e5 8dbf 76c8 64bf
00000070: 0637 ccbf b8c3 6bbf 8c2b 59bf 89ec 59bf
00000080: 0798 1ebf 21fc 46bf 644d 23bf 2b1f 68bf
00000090: 9d26 42bf 0870 23bf a354 5ebf f6f8 63bf
000000a0: 3e79 53bf 24f5 b7bf f05c 80bf 04eb 69bf
000000b0: 0125 73bf d03e 9a3e 6e2f 66bf 1bb6 86bf
000000c0: a70e 11bf 815d 80bf 46b6 6fbf 7a03 37bf
000000d0: 1a18 84bf cd7b 87bf a439 5fbf 8da6 75bf
000000e0: f55c 54bf aca6 0fbf 16dc 3ebf 8007 91bf
000000f0: 2c2c a1bf bfe8 48bf 1893 3ebf ba82 90bf
00000100: f0a3 00bf 1593 8dbf f60e 5bbf d2e5 32bf
00000110: 0776 4bbf e83a 31bf b514 b7bf bcdf 85bf
00000120: 25db b2be 7202 64bf 9999 7bbf f053 20bf
00000130: e8a6 5ebf 7cee 7abf 76ef 90bf 06e9 8cbf
00000140: 6021 123f f0d8 a03e 635e cf3b 5185 fa3e
00000150: 36a7 0ebe 811a fcbd 39c6 79bf 113f 3d3e
00000160: 04b1 57be 403a 253e 5787 323e cc4c b63e
00000170: edd3 5dbf f996 0e3e 24a1 2fbf 9b3c 0cbf
00000180: 4d9b db3d 97ae 3bbe a5c9 d0be 2056 edbd
00000190: 4086 95be afd1 193d f3f9 8b3f 5ab9 983c
000001a0: c78a 6bbf e048 013d 219f b6be d466 9e3e
000001b0: 68d2 19bf 1590 dd3e d340 38bf 4a4c 3cbf
000001c0: 1bd9 0e3e 95ae d9bc 270b 683e f92d 05bc
000001d0: 831c cb3d 780a 05bf 86b5 b63e 9b74 9cbb
000001e0: ecdd 87bd 8bd6 70bf 78ad 0b3f 98e6 8bbf
000001f0: b87f f23e 5216 f3be ae37 93bc 1d68 9fbe
00000200: e78a c03e 924e 7abf c94a 72bf 1bea 6f3e
00000210: 8d66 6abf 390f 46bf ef04 18bf ade1 14bf
00000220: 319a 18bf f528 a6be a20a 283d 42a6 0fbf
00000230: 3e9f 56bf 632a 60be aed5 60bf 76f1 d0be
00000240: 752f d1be afe7 42bf b775 9abe c283 41bd
00000250: 27f8 c93d a1b4 fbbe ee7f 7bbf 1416 34be
00000260: 3b0b a1be efac 5ebe bbe0 dfbd c45d 86bc
00000270: ab0b 40bf 1aca 9fbe 0605 90bf 0638 fe3d
00000280: c36e 16be d2ce c0bc 31be 503e 5a70 a9bd
00000290: ea25 6d3e eda5 783e e7c1 92bc 6faa 2c3e
000002a0: bf6e 5ab9 7ca6 16bc 4306 843e c2f6 68be
000002b0: 84b8 213e bc55 39bc 317e 093e 3ec2 20bf
000002c0: 78bf 263d ce27 22be 1cd1 013e ab49 fe3e
000002d0: 6e26 853e bb09 1bbe 9a51 09bd 3ac9 273e
000002e0: a0d0 99bd 74b4 ab3e 5207 3c3d 3a73 a3be
000002f0: 8bfe 1a3c 721a 62be 27c0 173e 3e64 91bb
00000300: a55e 11be ebc5 afbc 4219 823e b9ad 3f3e
00000310: a043 da3c b2f6 57bb 9c8d 47be ee10 6d3c
00000320: f076 e43d 9b7a 48be 0e41 04be 54ce 2fbe
00000330: 9e9e 213e eed9 12be 8c31 6d3d ce6f 63be
00000340: ab17 223e 0e72 84bc a804 cf3e 38e8 f6be
00000350: 1ccf ae3d 8589 ddbe a13e 113e 4b43 be3e
00000360: a477 0abb b0c9 d2bd 6871 24be aecf 1d3e
00000370: f38a a6be 600b bdbd deeb 9abe 494a 863e
00000380: e2bc 76bb 5d2c 49bd 2ce9 dd3e b4ba 7ebe
00000390: 0ed7 e8bd 7ec9 223e f63c 923d d705 ea3c
000003a0: 8d11 9f3d 28ed 10be d406 32be 2070 113d
000003b0: c7bb 133e 28e5 2d3e 79b0 8d3e ec07 153d
000003c0: 52bf 12bf 1e10 28bf a6a2 50bf 04c2 bf3e
000003d0: 9e57 53be 63eb 48bf 67c2 efbe fc5c 0dbd
000003e0: a6f3 6cbf 1035 d7be fd8d 80bf 57a7 4cbd
000003f0: 84b7 93bf 1031 3dbf cf86 39be 0ba9 66be
